model.pth (torch_old, 6174 bytes, 6 tensors)

weight f4 [64, 6]
00000000: eb21 303d 0373 8bbb da59 543e 3196 9b3e
00000010: 7384 88be 100a fd3d 98bf b73d b572 81be
00000020: fa6f 883e 1992 2ebe 8c85 0c3d 4ac5 35be
00000030: 8de5 a5be 1ed5 0c3e 0bcd f53b c2ec 64be
00000040: b78c 72be 2833 47be 00ed 033d 6437 19bb
00000050: 96b2 323e 2cf8 423e 6c1e aebe d114 683d
00000060: 2e78 a73c 4c01 383c 2f73 523e 98d2 b6bd
00000070: b6df 9bbe 849c 973e bcb9 0cbe 31c9 593d
00000080: f7c8 7ebd 477d b53e 727e bfbe b1fd 403e
00000090: 3406 c4be 5bbd 3e3a 828d bf3e 13d4 52be
000000a0: a6c4 e03b 66f2 68be c98a c63e 6c56 8e3e
000000b0: 1881 b2bd c563 89be 944c 1abf ca52 983c
000000c0: fbfe bebe a9f2 98be 6acb 9d3e 5cbe a13e
000000d0: 12c9 4fbe a013 023d f953 bfbc e5fb 2bbd
000000e0: 7576 9c3d 5c6c f23e c80a 13bf 7c08 80bd
000000f0: e660 843d 7ca0 533e 8dc8 80be 3b39 3e3e
00000100: 10d3 d93e 17f2 b03c f99a 8d3d a7a9 e0bd
00000110: 17fa 8b3e b988 333e 7fd9 cebd 7290 d93d
00000120: e2cc 89bc c140 1cbc 20a7 05bc aa99 0d3f
00000130: 84f9 dcbe afec a83c eeab ce3d 67f4 693e
00000140: ecca 2d3e 1f42 98be b690 0a3e 2fe1 6d3e
00000150: 0004 d338 1472 8b3e b14b f73b 8bae 953e
00000160: eedc c5bd a8a2 c7bb 09f7 cbbe 1ad3 64be
00000170: 2994 b3be 9031 0d3e 1e74 2fbe 83c6 abbe
00000180: ae7f 9f3e c837 5cbd 49df a7be 64cd d73e
00000190: 0e09 1cbe 31c6 a1bd 2089 dfbd 6ce8 d33e
000001a0: 1d53 bfbe fe3c 6bbe 7e30 f9be efe7 b73d
000001b0: 88a9 1c3e 6a0b f33d f304 b7be 2418 f03d
000001c0: 3f24 7ebe 8d41 97bd ff0c 703e 0caf 7ebe
000001d0: b100 2bbe bd83 0f3e f59e aabe d35b a13e
000001e0: f6dc 49be b3f6 8a3d b241 e2be 3777 4c3e
000001f0: 89ca dc3a 61a7 223e 71ec 773e d24f 56be
00000200: 9c6c 763e f70e 4b3e e65f 5fbe 29bd b8be
00000210: 6995 22be a179 0c3d 5c12 fe3d 97ce d3be
00000220: 74bc 463e f673 a6be 5072 fa3d 8947 36be
00000230: 44f8 c2be a4ab bd3e 7601 19be 64e0 d0bd
00000240: 601b 3b3c 64f3 d1bd 31aa bfbe 2ace 64be
00000250: d804 adbd 180e 65bd 09eb c2be 9a58 abbe
00000260: a06e 3a3d 6709 3bbe 1e31 36be f0e2 e4bc
00000270: 024a dc3e d6cf b8bd 5469 81be 0ae1 213c
00000280: 3439 ac3e 0ed0 fb3d b6af d73c 4532 fc3d
00000290: 2961 7a3e 97d9 723e a16f b13e b803 873e
000002a0: effa 423e e7e5 1cbe 5006 6ebe 4fce 35be
000002b0: f07a a4be 7ad0 9fbe 39a4 cabe 39d9 d93c
000002c0: 8195 c6bd 173d 963e 0aff 613d b6a0 bb3e
000002d0: d8e2 3d3d c5e8 84be 923f aebe 2466 50be
000002e0: b7ea d3bd 96f8 8a3e c101 5ebe 71f9 213e
000002f0: e314 b63c 956c 613e 750e e4be 292b 94be
00000300: e68f 4cbe f662 6fbe f8c9 a9be 2f0f 923e
00000310: c7bb a33c 9331 8d3d 05e3 593e fb92 04be
00000320: 6871 92bc d8eb 98be 542f cdbe 40cc 87be
00000330: 03e5 61be 3b12 abbe b56d babe 0b22 92be
00000340: 30de bbbe a992 6abe 7db0 b3bd d570 b7be
00000350: 6671 4e3e 9456 61bd b031 893d 5367 4f3e
00000360: 10e2 343e 5bbb c43d 5d02 af3e cf2b 5dbe
00000370: 7ff8 73be dc8b 32bc 2d74 e3bd 3194 36bc
00000380: 2cc4 b5be 65f3 ec3e 99d6 7b3e 2841 ff3d
00000390: f8d0 2d3e a2a2 1cbd 1203 773e 7b83 94bd
000003a0: d5aa 1e3e fea9 01be eb8c 75be 14f0 39bd
000003b0: b792 a7bd 4746 0b3e 8fd8 fa3d edad bf3e
000003c0: 08ef fdbd f4b3 a03d daa7 323e 37f9 9e3d
000003d0: fc91 933e 265e 8ebe c3f2 943e 3be6 d1be
000003e0: c8d8 e73d 1f5b c43e fb92 423e 6c94 3fbe
000003f0: f632 923e 939c 14be 606a 263e 529e 823e
0.043001097 -0.004255654 0.207374 0.30388024 -0.2666355 0.12355435 0.089720905 -0.25282827
0.2664793 -0.1704792 0.034307048 -0.17751041 -0.32401696 0.13753173 0.0075012497 -0.22355941
-0.23686491 -0.19453108 0.032208443 -0.0023378963 0.17450938 0.19039983 -0.34007585 0.056660477
0.020443048 0.011230778 0.20551752 -0.08926886 -0.30444115 0.296116 -0.13742727 0.053170387
-0.062203374 0.35447142 -0.37401158 0.18846776 -0.38285983 0.0007276141 0.3741265 -0.20588712
0.00685938 -0.22748718 0.3877776 0.2780031 -0.08716029 -0.2683393 -0.602731 0.018594164
-0.3730391 -0.29872635 0.30819255 0.31590545 -0.20291546 0.031756997 -0.023355471 -0.041988272
0.076397814 0.47348297 -0.57438326 -0.06251618 0.064637944 0.20666689 -0.25153008 0.18576519
0.4254384 0.021599812 0.06914324 -0.109698586 0.2733924 0.17532624 -0.10100078 0.10623254
-0.016821329 -0.009536923 -0.0081575215 0.553126 -0.43159115 0.020620672 0.10091387 0.22847138
0.1697194 -0.29737946 0.13531765 0.23230432 0.00010062009 0.27235472 0.007546865 0.29234728
-0.096612796 -0.006092388 -0.3983691 -0.22346154 -0.35073975 0.13788438 -0.17134139 -0.3354989
0.311521 -0.053764135 -0.3278754 0.42148888 -0.15237829 -0.0789913 -0.109148264 0.4138826
-0.37368098 -0.22972485 -0.4866981 0.08979785 0.15299046 0.118674114 -0.35745963 0.117233545
-0.24818514 -0.0738555 0.23442458 -0.24871463 -0.16699483 0.14015098 -0.333244 0.3151537
-0.19713196 0.067853354 -0.44190747 0.19967352 0.0016845028 0.15884162 0.24211289 -0.20928887
0.24064869 0.19829927 -0.21813926 -0.36081818 -0.15877308 0.034295682 0.124058455 -0.41368553
0.19407827 -0.32510346 0.12228835 -0.17800726 -0.38080037 0.37045014 -0.14941964 -0.10199049
0.011420101 -0.10251501 -0.37434533 -0.2234427 -0.084481895 -0.055921644 -0.38069943 -0.33466035
0.045515656 -0.18265305 -0.17792174 -0.027940243 0.43025213 -0.090240166 -0.2527567 0.009880314
0.33637393 0.12295543 0.026328903 0.12314276 0.24451126 0.23715816 0.3465548 0.26370025
0.19041036 -0.15322076 -0.23244596 -0.17754482 -0.32125044 -0.31213742 -0.39578417 0.026592838
-0.09696484 0.29343483 0.055174865 0.3664605 0.046358913 -0.2595884 -0.34032875 -0.20351464
-0.10347503 0.2714278 -0.21680357 0.1581781 0.022226756 0.22014077 -0.4454228 -0.2893918
-0.19976768 -0.23377594 -0.33161902 0.2852721 0.019987 0.06894221 0.21278007 -0.12946694
-0.017876342 -0.29867435 -0.4007517 -0.26523018 -0.22060017 -0.33412346 -0.36411825 -0.28541598
-0.36692953 -0.22907509 -0.08773897 -0.35828272 0.20160446 -0.055014208 0.0669893 0.20254259
0.17664361 0.09606048 0.3418149 -0.21598743 -0.23825262 -0.010897603 -0.11106143 -0.01114373
-0.3550123 0.46279445 0.24593581 0.124635994 0.16974247 -0.038241036 0.24122265 -0.072516404
0.15494855 -0.12662503 -0.23979537 -0.045394972 -0.081822805 0.13601027 0.122483365 0.37437382
-0.12399107 0.07846823 0.17446843 0.07762378 0.28822315 -0.27806205 0.29091462 -0.40995964
0.113206446 0.3835077 0.19001381 -0.18708962 0.28554505 -0.14512853 0.16251516 0.25511414

bias f4 [64]
00000000: f11e 6d3e 9145 363e 9820 a03e 1afa edbd
00000010: ad9e db3c 51a4 493e cdf6 c9be db02 d2bd
00000020: 94e1 cdbe a9fe a93e cc3c 0a3c 10d1 d13d
00000030: 6d7c 0b3f 7e5c c9bc 3bfd 023f e0b1 b6bd
00000040: 91f7 9dbe 5298 ef3e 44da 793b 21e7 acbd
00000050: 9eeb 1bbe 2829 143c 2373 083e 936f bbbe
00000060: d129 4fbe d0da 8abe 4fa1 4dbd d10b 72be
00000070: 2bdb d5bd eee3 a7be dba8 0d3d 9d57 58be
00000080: d796 a43e 966f ca3e 10ff dfbd 87cb f1bd
00000090: 9f13 123e 5303 95be dd57 443e 6c57 82be
000000a0: 4ffa 0cbf 3074 9bbc cd05 193c 0aef cdbd
000000b0: c575 19be a07e d33c e8ab 9abe 6634 25be
000000c0: a348 68be 2f9a cebe 8017 623e 7c09 c83e
000000d0: 1438 a9bd 60cd a13e dbc1 c2be 4dc0 ff3e
000000e0: be71 cdbe 9ffc 67be fcdb a03e aa2c 5ebe
000000f0: 33b5 223e 8498 9cbe 7c62 ac3e fadd a33e
0.23156334 0.17799975 0.31274867 -0.11619969 0.026809061 0.19691588 -0.39446107 -0.10254451
-0.40211165 0.33202103 0.008437347 0.10244954 0.54486734 -0.024580237 0.5116765 -0.08920646
-0.3085294 0.467959 0.0038124481 -0.08442522 -0.152266 0.009043016 0.13325171 -0.36608562
-0.20230795 -0.27120066 -0.050202664 -0.2363732 -0.104421936 -0.32791084 0.03458486 -0.21127172
0.32146332 0.39538258 -0.10937321 -0.11806398 0.14265297 -0.291041 0.19174142 -0.25457323
-0.5506944 -0.018976301 0.009339762 -0.10055359 -0.14986332 0.025817215 -0.3020928 -0.1613327
-0.22683959 -0.40352008 0.22079277 0.39069736 -0.08262649 0.31602 -0.38038525 0.499514
-0.4012584 -0.22654961 0.31417835 -0.21696725 0.15889435 -0.3058511 0.33668888 0.32005292

weight f4 [10, 64]
00000000: 80bd 8dbc dae5 d43d d605 fc3d 905b 90bd
00000010: 2a01 9abd 005f 883d a443 8bbd bc95 e33d
00000020: 40a6 2dbc 2cbc 25bd 484f dbbd dc48 053d
00000030: d4ad 053d 4a09 973d 9cb2 b4bd 9285 c7bd
00000040: 6816 67bd f038 39bc f4f2 d7bd 7032 ca3d
00000050: 6877 abbc 74fd adbd 4e33 b6bd 02c0 aebd
00000060: c80c 6b3d 0489 ce3d 90af 25bd e0cd 51bc
00000070: 1411 65bd 6af4 f6bd e473 e2bd f013 f6bc
00000080: 9071 c3bc 28ed 14bd 9a6f 853d a6b6 cfbd
00000090: d0ec 853c 48ed 943c 0070 73bd 5857 dfbd
000000a0: 78c1 ec3c 34a5 b8bd b81d 99bd 20f4 9a3b
000000b0: 50e6 5e3d 9c16 21bd e4d3 e63d 58e2 8abd
000000c0: 8000 5cbb e2a7 a03d f87e e93c 405d 973b
000000d0: 4426 b7bd d836 edbc e83c 793d 74bc e3bd
000000e0: 30dc b0bc e01d 1bbc c001 81bd 300d 7cbc
000000f0: 405a 94bb d269 e33d ec85 da3d f8a0 f43c
00000100: 0e2d 283d 3f1a 05bd a46d 503d 9435 1ebb
00000110: 9aa2 ad3d 53a7 0dbe a438 00be dac3 c3bb
00000120: b0c4 403c 430d 0b3c ea76 a5bd c31c a1bd
00000130: c5f3 eabc 639c aa3d 7c92 213d 328b e0bd
00000140: 81a5 8cbd 4aa1 a3bd cb7f 0abd 64dc afbd
00000150: 5cc8 8fbd 3c12 1cbe 51b3 833d b005 4f3d
00000160: aca6 7ebd d8e7 643d 6ea3 73bd cce4 6bbd
00000170: 5833 d6bd 76b9 fdbd 27bb af3d 20ed 96bb
00000180: a42e 073e 326d d8bd f85a 7dbd 1c88 633d
00000190: 202f 18be b513 a13d 2f58 f6bc 1b56 e2bd
000001a0: 7863 79bd ce12 0f3d 6aac 3cbd 8ef4 8d3d
000001b0: 9de7 99bd 4eb2 b73d 1679 f3bc bcaa a73d
000001c0: 0904 8f3d 4613 b23d 2876 3b3d 5c10 b0bd
000001d0: 7167 31bc 6b13 15be 0ee9 e3bd d2bf f0bd
000001e0: 8034 db3a 284f 8bbb a5b3 d73b de85 cbbb
000001f0: c4fa 923c 1f42 23be dc28 d2bc fa6e d3bd
00000200: 3cca 023d 103d e3bd c4e5 02bd a0d3 4abc
00000210: 984a 943c 9a1e 963d c0a8 393d 92b3 c53d
00000220: 0010 4839 a0d2 0cbc d80a bebd 2001 61bc
00000230: fc2e e6bd 82c0 a0bd ccfe 95bd 80e7 653b
00000240: 003c cfbb 182b e43d 501a 8a3d c0d2 c7bb
00000250: 20f0 aebc 94f3 8dbd 6820 fc3c a41e 223d
00000260: f041 f03d 6054 edbb 60e6 adbb 4059 c63c
00000270: b624 b3bd 3054 0bbd 083c b0bc 40a0 dd3d
00000280: 702c ae3d 60ae e33d 881a ecbc 9460 01bd
00000290: bcd1 a9bd 606d 75bd b466 19bd 80d4 ef3b
000002a0: f028 173c 2659 94bd 96bd f13d 3c97 a6bd
000002b0: 805f eabd b40d fdbd 8020 90bc 0071 b23b
000002c0: 6c6f 743d 30a0 16bc 643d cdbd 22ff 903d
000002d0: 282a d5bc 3871 3f3d b099 65bc 30b0 a2bc
000002e0: 8021 27bd 2037 69bd 7ec1 b2bd 9a1a dabd
000002f0: 585f 2fbd 78f9 18bd c037 d13b 2c9d 193d
00000300: 70f6 a5bd 5cad 173b 986d 07bc fe07 a63d
00000310: 4d85 26bc fecb 9c3d 2324 d33d fdd7 86bd
00000320: d80e b23d 7ace 4db9 431d 49bc 57d1 08bb
00000330: 662b c53c cadc 823d 676f 0ebc a888 bdbc
00000340: 6d35 233d 0aca 10be 2b5f 67bc 8735 a6bb
00000350: 5d4d ef3d b647 a13d 22ab 403d c077 1b3d
00000360: 6c22 733d 1e27 853d 406a 9dbd 6e48 d0bc
00000370: 73fa 363c de12 bebc 4aa9 2fbd 765f 3dbd
00000380: c09e 7b3c dce3 83bd b830 92bd 420d 033d
00000390: 7026 61bd 307b d93c dfe4 0abe 0426 263c
000003a0: afc9 413c 7366 a93d 0603 11bd 199d f1bc
000003b0: dfe3 c0bc 8455 8d3d 71bc 93bd 7084 7e3c
000003c0: 0405 00be e8ea b33d ccc9 89bd 1e21 d6bc
000003d0: 6894 96bd 688b 6cbd 48c2 3dbd f332 563d
000003e0: c07a 4cbc 0c94 883d 5aad 3e3d eb44 47bc
000003f0: ebca 403d 66cf a43d ff43 88bd 4861 7dbd
-0.017302275 0.10395403 0.123058006 -0.07048714 -0.07519753 0.06658745 -0.06800011 0.11112544
-0.010598719 -0.040462658 -0.10708481 0.032540187 0.03263648 0.073748186 -0.088231295 -0.097422734
-0.056417853 -0.011305079 -0.105443865 0.098729014 -0.02093096 -0.08495608 -0.08896504 -0.08532716
0.057385236 0.100847274 -0.040450633 -0.012805432 -0.05592449 -0.12058337 -0.11057261 -0.030038804
-0.023857862 -0.036358982 0.06515427 -0.10142259 0.016348273 0.01817955 -0.059432983 -0.109053314
0.028900847 -0.09015885 -0.074763715 0.004728809 0.054418862 -0.039328203 0.11270884 -0.06781453
-0.0033569634 0.07844521 0.028502926 0.0046192706 -0.089428455 -0.028956816 0.0608491 -0.11119929
-0.021589369 -0.009467572 -0.06299162 -0.0153840035 -0.00452736 0.11104168 0.10670075 0.029861912
0.041058592 -0.032495733 0.05088581 -0.0024140822 0.084782794 -0.1383336 -0.12521607 -0.005974275
0.011765644 0.008487049 -0.08079322 -0.07866814 -0.028680691 0.0833061 0.03944634 -0.109640494
-0.06867505 -0.07989748 -0.03381328 -0.08586958 -0.070206374 -0.15241331 0.06430686 0.050542533
-0.06217067 0.055885166 -0.05948203 -0.057591245 -0.10459012 -0.123888895 0.08580618 -0.004605904
0.13201386 -0.10567702 -0.061854333 0.055549726 -0.14861727 0.07865087 -0.030071346 -0.110515796
-0.060885876 0.034930043 -0.046062864 0.06931411 -0.0751488 0.08969556 -0.029720824 0.08186862
0.069831915 0.08695082 0.04576698 -0.0859687 -0.010827885 -0.14558189 -0.11128436 -0.11755337
0.001672402 -0.0042513795 0.0065826946 -0.0062110266 0.01794184 -0.15943192 -0.025654249 -0.103239015
0.031931147 -0.11095631 -0.031957403 -0.012379557 0.018101975 0.073300555 0.04532695 0.09653391
0.00019079447 -0.008595139 -0.09279412 -0.013733178 -0.1123943 -0.07849218 -0.07323989 0.0035080612
-0.006324291 0.11141032 0.067433 -0.0060981214 -0.021354735 -0.069312245 0.030777171 0.039580002
0.117313266 -0.0072427243 -0.005307004 0.02421248 -0.087472364 -0.034015834 -0.021513 0.10821581
0.085045695 0.11117244 -0.028821245 -0.031586245 -0.08291957 -0.05991876 -0.03745146 0.007319033
0.009226069 -0.07243566 0.11803739 -0.081343144 -0.114439964 -0.12356129 -0.017593622 0.0054455996
0.059676573 -0.009193465 -0.10021475 0.07079913 -0.026021078 0.046738833 -0.014013693 -0.019859403
-0.040803432 -0.056937337 -0.08728312 -0.10649605 -0.042815536 -0.037347287 0.0063848197 0.037503406
-0.08103645 0.0023144102 -0.008265875 0.08106993 -0.010163617 0.07656096 0.10309627 -0.06584165
0.086942375 -0.00019627242 -0.012275043 -0.002087673 0.024068546 0.063897684 -0.008693553 -0.023136452
0.039845873 -0.14139572 -0.014121811 -0.005072299 0.11684678 0.07875006 0.047038205 0.037956
0.059359 0.06501602 -0.07686281 -0.025425162 0.01116811 -0.023202356 -0.042886056 -0.046233617
0.015357673 -0.06439945 -0.071381986 0.031995066 -0.054968297 0.026547998 -0.1356387 0.0101409
0.01182787 0.08271494 -0.035403274 -0.029493855 -0.023546157 0.069010764 -0.07213677 0.015534505
-0.12501913 0.08785039 -0.06727943 -0.026138838 -0.07352525 -0.057750136 -0.04632786 0.052294683
-0.012480438 0.06668863 0.04655204 -0.012162427 0.047068518 0.080473706 -0.06653594 -0.061860353

bias f4 [10]
00000000: baf2 e6bd 7bc0 133c e8a3 a6bc d8a8 81bd
00000010: 99a4 353e 3e08 f73d d7ca c43e 280b 63bd
00000020: dc76 bf3d f836 d5bd
-0.11276765 0.009018059 -0.020341828 -0.063310325 0.1773857 0.12062119 0.38436005 -0.05543056
0.093488425 -0.10410875

weight f4 [3, 10]
00000000: 6bd0 08be f527 6b3c 3a9a 98bd 5f41 b4bd
00000010: 5b2d 3cbe f037 64be fc91 71be 8c9b fa3d
00000020: 068b 653e dfbc 6ebd 5812 4a3d 3983 37be
00000030: b6b7 e5bd 3a53 93be 52c1 6ebe 3055 833c
00000040: d06f 9dbe 9a1e 26be 6ea3 553e 9ffc 9bbe
00000050: 9070 c13d 9a5a 97bd 8fb1 943e 4373 7abe
00000060: c21d 01be 00e5 473d 5ec1 2cbe 9e54 69be
00000070: a48a 84bd 092f 1cbe
-0.13360755 0.014352788 -0.074512914 -0.08801531 -0.18376677 -0.22286963 -0.23590845 0.122366995
0.22416314 -0.05828559 0.0493339 -0.17921151 -0.11216681 -0.28774434 -0.23315933 0.016031832
-0.3074937 -0.16222611 0.20863125 -0.30466172 0.09445298 -0.07390328 0.29041716 -0.24458031
-0.12609008 0.048802376 -0.16870639 -0.22786185 -0.06471756 -0.15252317

bias f4 [3]
00000000: f9f3 3b3e 81d4 ddbe 5254 913e
0.18354787 -0.4332619 0.28384644
