model.pth (torch_old, 6174 bytes, 6 tensors)

weight f4 [64, 6]
000000 29 7f 1b bf 7b 18 6e 3d 2b 32 b0 3d 08 79 40 be
       -0.60740906 0.058128815 0.08603319 -0.1879617
000010 38 3d 34 3e d5 5d af bc dc 89 18 bf 17 c9 ce 3d
       0.17601478 -0.021407047 -0.59585357 0.100969486
000020 3e b1 26 3c 32 b3 85 bd c8 84 9c 3e 95 cf 1c bf
       0.010174094 -0.065283194 0.30570054 -0.61254245
000030 1f e1 db 3e 1e 64 5b 3e 38 44 06 3d 67 aa cf 3d
       0.4294519 0.2142491 0.032779902 0.101399235
000040 78 6b 14 3e 0c 74 60 3e e5 7d c7 3e 74 23 e4 3e
       0.14494121 0.21919268 0.38963237 0.445583
000050 61 6c a6 3e 0f ff 1d 3e 84 e6 94 be e6 22 4c 3d
       0.32504562 0.15429328 -0.2908212 0.04983797
000060 b4 81 73 be d8 96 9a be 59 31 3d 3e 43 35 82 3e
       -0.23779947 -0.3019321 0.18475856 0.2543126
000070 4d 39 e5 3e c9 34 bd 3d 12 fc e6 3d 67 a8 0e bf
       0.4477028 0.092385836 0.11278547 -0.5572571
000080 eb 10 34 bd 72 8c 71 3e 46 a5 bb 3e a4 c2 2b bf
       -0.043961447 0.23588732 0.3664953 -0.67093873
000090 21 04 71 be fe 9e fa bd bb dd 97 be ad f0 37 3e
       -0.23536731 -0.122373566 -0.29661354 0.17962904
0000a0 b2 67 e6 3e 6d 36 a0 be 04 56 b3 be cf bb 31 3d
       0.45000988 -0.31291524 -0.35026562 0.043392
0000b0 85 e2 3f 3c 52 b6 01 3f cf ec 07 3d 96 f9 d3 be
       0.011711721 0.50668824 0.033184823 -0.41401356
0000c0 3b 7a d9 3e 14 8b 57 be 04 c1 c2 3e be 72 7c 3e
       0.42476067 -0.21049148 0.38037884 0.24653146
0000d0 2e 8e 14 3e 3a 6d c4 3d 82 92 67 be 32 4b 33 3e
       0.14507362 0.09591146 -0.22614482 0.17509153
0000e0 0a ef 3a 39 ff 06 43 3d 69 da 0c be 45 2c a9 be
       0.00017827391 0.047614094 -0.13755192 -0.33041587
0000f0 4b c4 6c be de ab ac 3c 15 50 58 be 91 ca f8 3e
       -0.23121755 0.021078046 -0.21124299 0.48592046
000100 bd 40 cb 3e a3 cf 2e bf e0 73 00 bf e1 2a 0e 3d
       0.3969783 -0.6828558 -0.5017681 0.03470886
000110 33 de 74 be 5d 55 c0 be 7e 33 11 be d0 9f 4e 3e
       -0.23912887 -0.37565127 -0.14179799 0.20178151
000120 74 cc 4b be 01 aa 27 3e 7d 5a 03 3c 60 3e a0 be
       -0.19902211 0.16373445 0.00801718 -0.31297588
000130 e9 11 b2 be 49 4a 93 3e b8 67 39 3d 45 14 9e be
       -0.3477929 0.28767613 0.04526493 -0.3087484
000140 a0 6b 75 3c 40 76 58 bc d0 b5 9a be 0a 9d d0 be
       0.014979273 -0.013211787 -0.30216837 -0.4074481
000150 21 52 29 3e 91 2f b1 be 29 52 1b bd fa fe 64 3d
       0.16535236 -0.34606603 -0.03792015 0.055907227
000160 52 75 77 bd 6b 3d cb 3e ae 08 39 be 90 9e c4 3c
       -0.06041462 0.39695296 -0.18069717 0.02400139
000170 a0 ad 50 bd a0 60 9b 3e c8 5f f8 3d 3f 8e 7c be
       -0.05094683 0.30347157 0.12127644 -0.24663638
000180 70 76 61 bd 32 a1 ba be ca ab 06 be fa 10 86 be
       -0.05504459 -0.36451107 -0.1315147 -0.26184827
000190 c0 86 01 3e 80 f2 10 bd c8 06 f1 bd ea 81 cf be
       0.1264906 -0.035387516 -0.117688715 -0.40528804
0001a0 a8 3d d6 3d 4c 16 b8 bd 76 68 a6 be 90 53 4b 3d
       0.10460979 -0.08988628 -0.32501572 0.04964024
0001b0 3c 8d fe 3b 83 87 da 3d 62 28 b6 bd 71 28 70 be
       0.0077683013 0.10670378 -0.08894421 -0.23452927
0001c0 92 b7 80 3e a3 a3 b0 ba a4 f8 92 3e e2 6c 43 3f
       0.25140053 -0.0013476502 0.28705323 0.76338017
0001d0 bd 78 05 3f aa eb bf bd 3b d7 1b bf a5 34 00 3f
       0.52137357 -0.09371121 -0.6087529 0.5008033
0001e0 7b 3c 02 3e 8a f6 8b 3d 64 2c 86 be 87 eb 0b 3e
       0.12718384 0.06834133 -0.26205742 0.13664065
0001f0 b9 6b b0 be a2 35 70 be 4c 60 d2 bd ac 6c 88 be
       -0.34457186 -0.2345796 -0.102722734 -0.2664541
000200 19 0a bd be c5 8d c9 be a6 3d bd be 0e d8 9b be
       -0.36921766 -0.39365974 -0.36961097 -0.30438274
000210 a2 00 4c be 26 4c 15 be 62 63 88 be 25 13 64 be
       -0.19922116 -0.1457983 -0.26638323 -0.22272928
000220 08 79 5a 3e c8 a8 fa be 6d 64 00 3e e1 e6 8c be
       0.21335232 -0.48956895 0.1253831 -0.27519897
000230 5b 29 0c bf 99 07 2b be d8 88 84 3e 5e cf 43 3e
       -0.54750603 -0.16702117 0.25885653 0.19122073
000240 81 c0 88 be 43 19 d4 bd 7a 12 8a 3e fd 69 f9 3d
       -0.2670937 -0.10356381 0.26967221 0.12178419
000250 e4 bc 00 3f ea d0 5b be 64 75 81 be 3b 29 b7 be
       0.50288224 -0.21466413 -0.25284874 -0.35773644
000260 90 24 1c be f6 58 9c 3e 18 80 ed 3d 20 3e 49 3c
       -0.15248322 0.30536622 0.115966976 0.012282878
000270 52 9e 24 3f 78 d9 53 3d ea 49 22 3f 68 f4 a1 be
       0.6430408 0.051721066 0.63394034 -0.3163178
000280 a9 87 78 be 99 08 02 3f 38 be ee bb 73 53 de bd
       -0.242705 0.5079437 -0.0072858594 -0.108557604
000290 28 8a af bc ad 19 5b 3e e9 2b fc 3e 8b 22 d8 be
       -0.021428183 0.21396513 0.4925225 -0.42213854
0002a0 af 85 07 3f d4 65 6c bd d0 fe 9e bd 53 6f 9b 3e
       0.5293836 -0.0577143 -0.077634454 0.3035837
0002b0 6d 65 a4 3e 5a 16 05 3f b8 09 18 3e 92 60 82 be
       0.32108632 0.5198723 0.14847457 -0.25464302
0002c0 4a 82 30 bb 15 6e b1 be 87 dc 21 be be 26 0e be
       -0.0026933127 -0.34654298 -0.15806781 -0.13881966
0002d0 08 c6 90 3d f0 d6 c2 bd 69 93 30 be 6c 9a 89 3e
       0.070690215 -0.09513652 -0.17243733 0.26875627
0002e0 fa ca 0e be 30 66 f6 bd 98 c0 79 be a2 bf ef be
       -0.13944617 -0.120312095 -0.24389875 -0.46825892
0002f0 e9 de 85 3e e4 00 24 3f bc 3a 00 3f a7 04 e8 be
       0.2614663 0.6406386 0.5008962 -0.4531605
000300 e4 14 dc bd 38 87 02 bf f9 6e ca be 60 fd c4 3d
       -0.10746172 -0.5098758 -0.3953779 0.0961864
000310 1a 42 e7 bd 6d ba 83 3e 94 e1 ab 3e 18 4f 06 be
       -0.11291905 0.2572817 0.3357054 -0.1311611
000320 b1 c0 a3 be 00 16 46 3c b9 38 af be c6 ca 98 be
       -0.3198295 0.012090206 -0.34222963 -0.29842204
000330 62 f0 84 be 96 b6 ee bb 8b 90 5d 3e 7e 38 b1 3d
       -0.25964648 -0.0072849495 0.2163717 0.08653353
000340 e6 3f 22 3c d8 fa d6 be 8e 49 91 be 2e c7 f6 be
       0.00990293 -0.41988254 -0.2837643 -0.48198837
000350 a1 60 96 be 62 90 f8 bc d3 ce 93 3e 59 cb ee bd
       -0.29370597 -0.030342285 0.28868732 -0.11659879
000360 7e ad 33 3d 4e 54 e5 3c c1 62 70 3d d1 44 a2 3e
       0.043866627 0.027994301 0.05868793 0.31693128
000370 49 bd c2 3e 59 19 a6 be 08 bd 9c be e8 50 a6 be
       0.38035038 -0.32441214 -0.3061297 -0.32483602
000380 3a bb c7 be 1e 81 90 3e c6 77 bd 3e 90 c3 ea bd
       -0.3901003 0.2822351 0.37005442 -0.11463082
000390 d4 10 67 be 52 f8 8b be de 03 41 be 23 ee 34 3e
       -0.22565013 -0.2733789 -0.18849131 0.17668967
0003a0 17 9d 2d be 11 bb 35 3d 9d 01 c6 be 2e 01 85 3e
       -0.16954456 0.044367854 -0.38673106 0.25977463
0003b0 ce 43 8a bd d9 8e 5b 3e 7a 27 82 bd 1c 84 ba 3e
       -0.06751214 0.21441211 -0.06355186 0.36428916
0003c0 50 66 20 be d8 65 f7 3d a0 8c 33 bd e4 a2 47 3e
       -0.15664029 0.12079972 -0.043835282 0.19495732
0003d0 f4 d4 80 bd 16 a8 9e be 02 64 4d 3e 10 04 d4 3e
       -0.062906176 -0.30987614 0.20057681 0.4140935
0003e0 97 2c f4 3e 20 97 86 3e 9f 4a 6c be 8c 4b 19 3e
       0.4769027 0.26287174 -0.2307534 0.14970225
0003f0 ba ed a9 be 38 f6 1f 3e 00 85 34 bb 3c e2 44 3e
       -0.33189183 0.15621269 -0.0027545094 0.19226927

bias f4 [64]
000000 6b 70 bc bd e0 f1 dd be 75 be 8a be 4e 23 fb 3e
       -0.092011295 -0.43348598 -0.27098432 0.49050373
000010 72 62 b9 be 58 a3 a0 be 64 cb d1 bd f9 16 1a bd
       -0.3620792 -0.3137462 -0.10243872 -0.037619565
000020 3b b2 a5 3e 66 df ff be b4 82 ac 3e d6 10 03 3e
       0.32362542 -0.49975127 0.3369347 0.12799391
000030 d9 b2 bc 3e cb d0 a7 be d1 6c 54 bd 52 aa 8f 3e
       0.368552 -0.32776484 -0.051861588 0.28059632
000040 a7 34 31 be 9b bb 5e be 1d d2 03 bf fe 75 0b 3f
       -0.17305242 -0.21751253 -0.5149248 0.54476917
000050 e4 24 d2 ba 76 18 b4 3e a3 6c 98 bb 9f a3 0e bf
       -0.0016032723 0.35174912 -0.0046516224 -0.55718416
000060 d0 4a 69 be e8 ee 37 3e 8a 96 c1 3e a6 0c 59 be
       -0.22782445 0.17962229 0.37810165 -0.21196231
000070 c6 30 21 3f 18 ea a5 3e 74 66 38 be 92 f1 8a 3e
       0.6296505 0.32405162 -0.18007833 0.2713743
000080 24 3b 89 bd 24 65 c8 be 48 c0 9e 3e 60 e2 8a 3d
       -0.06700733 -0.39139664 0.31006074 0.06781459
000090 a9 7f 12 3e ae ce 02 be 38 32 04 be 7a 23 b4 3e
       0.14306511 -0.12774155 -0.12909782 0.35183316
0000a0 f1 bf 4d be 0a 90 ad be d0 94 ee 3c 89 e4 8f 3d
       -0.20092751 -0.33898956 0.029123694 0.070260115
0000b0 9e f5 82 3e 53 87 87 3e 80 ac 18 be 57 8b a0 be
       0.25578016 0.26470432 -0.14909554 -0.31356308
0000c0 28 b7 08 3f 90 15 82 3e a7 5f ac be 86 4b a7 3d
       0.53404474 0.25407076 -0.33666727 0.08168702
0000d0 ab 0a 92 be 11 25 43 be 24 e4 09 3e 04 9a 03 bd
       -0.28523764 -0.19057108 0.13465935 -0.032129303
0000e0 a0 af 47 bd 1a 3f cd 3e 9a 13 a2 3e 4c f4 b0 be
       -0.048751473 0.40087205 0.3165558 -0.34561384
0000f0 a0 ed 1e bc 61 fd 34 3e a7 a3 3a 3e 61 68 84 3e
       -0.009700209 0.17674781 0.18226491 0.25860885

weight f4 [10, 64]
000000 28 15 e2 bc 58 1d 61 3d a3 a0 55 bc 68 5f 1b be
       -0.027597979 0.054959625 -0.013038787 -0.15173113
000010 9b cf 12 bd f1 25 32 bc 12 ca 68 ba 9d b0 8a 3c
       -0.03584252 -0.010873304 -0.00088802085 0.016929919
000020 57 94 73 bc 86 f5 70 3d 24 10 bb 3c 41 57 97 bd
       -0.01486691 0.0588279 0.022834845 -0.07389689
000030 03 06 63 bd 6a 78 9a 3d 37 09 20 3d c0 ac a4 3c
       -0.055425655 0.075424984 0.039071288 0.020101905
000040 90 eb 0c 3c e2 fc f6 3d 6b 77 c0 3c c5 1b 19 be
       0.008601084 0.12059952 0.023494443 -0.14952
000050 8f 7a 21 be fa ee aa bd 26 f5 50 be c0 fc 8e bc
       -0.15769409 -0.083463624 -0.20406017 -0.017454505
000060 76 a4 5c bd ec 47 c9 bd b7 c1 ab bd 95 69 46 3d
       -0.05386778 -0.09828171 -0.083865575 0.048440535
000070 83 75 6a 3b 93 2a 8e bd 12 6f 88 3d 9a 2a 58 bc
       0.003577561 -0.06941714 0.0666181 -0.013193751
000080 da 23 71 bd b0 60 da 3d e7 86 78 bd 51 88 4d bc
       -0.05887208 0.10662973 -0.060675528 -0.012544707
000090 ed ad 1b be 50 c2 c3 3d e0 17 36 bd a5 5d cf bd
       -0.15203066 0.095585465 -0.044456363 -0.10125283
0000a0 08 6c d7 3d 10 a3 ac bd fe 1c f2 bd e2 68 2d 3c
       0.10518652 -0.08429539 -0.11821936 0.010584088
0000b0 8a 08 07 be 3d 0e 21 be 6a 1f 8f 3d af 24 ba 3c
       -0.13186851 -0.15728088 0.06988414 0.02272257
0000c0 e2 ac 36 be d3 ad 4c bd d3 c6 da bb 4a 5d a2 bd
       -0.17839387 -0.04997046 -0.0066765337 -0.0792795
0000d0 9d 99 13 3d 72 6b ab bd ac b5 6a bd fe 8b a9 bd
       0.03603517 -0.08370103 -0.057302162 -0.082786545
0000e0 b8 4e 7c 3d 98 64 76 3d a0 91 01 be 38 2a b3 bd
       0.06159851 0.060154527 -0.12653208 -0.08748287
0000f0 a4 69 31 bd 65 f5 b8 bd e3 18 d3 bd d9 f0 86 bd
       -0.043313637 -0.0903118 -0.10307481 -0.06588907
000100 50 c4 60 bd 92 99 35 bd 02 43 04 be 89 10 f5 bc
       -0.05487472 -0.04433591 -0.12916186 -0.029915111
000110 3e 64 1a bd 92 69 1f bc de 56 44 3d 84 ad 8d 3d
       -0.037693255 -0.00972976 0.047934406 0.06917861
000120 9b 4c 3e be 38 82 eb bd 3b 67 0f be 9e c5 cc bd
       -0.1858391 -0.11499447 -0.14004223 -0.0999863
000130 76 6d 67 3d 60 77 66 bc 7f de 31 bd 40 72 8e bd
       0.056500874 -0.014066547 -0.04342508 -0.06955385
000140 40 97 97 bb 60 a6 e4 3c c0 d9 4b 3d 93 2b 87 bd
       -0.0046261847 0.027911365 0.04976821 -0.06600108
000150 90 b2 52 bc 58 1e d6 bd ef a0 dc bb 80 b6 9e 3d
       -0.012859955 -0.10455006 -0.006733052 0.07749653
000160 8c 72 43 be 98 d0 8c 3c 2e 80 49 be 61 cf 61 be
       -0.19086665 0.017189309 -0.19677803 -0.22051765
000170 26 de 2a be f0 30 1c bd 10 f5 31 bd 2e 86 32 3c
       -0.16686305 -0.038132608 -0.0434466 0.010896249
000180 2d eb b6 bc c8 06 8f 3c ea 0b 4b 3d 60 8d 90 3c
       -0.022328937 0.017459288 0.04957191 0.017645538
000190 a4 8a ab bd 74 94 82 bd 41 ee 33 bd 2b 3f ea bd
       -0.08376053 -0.063759714 -0.04392839 -0.114378296
0001a0 c0 05 86 3c 83 f2 55 bd a4 e3 77 3d ed 1d 84 bd
       0.016360164 -0.05223323 0.06051983 -0.064510204
0001b0 30 60 74 3d 00 ff ff bb 26 15 e3 3d 88 a2 fb 3d
       0.059662044 -0.007812381 0.11088018 0.1228686
0001c0 42 2f c9 bd 04 92 30 bd dc 87 7f bd 16 9d b9 bd
       -0.09823467 -0.043108 -0.062385425 -0.09063165
0001d0 0f b0 88 3d d9 82 31 be 30 2e bc 3c 65 2f 3d be
       0.066742055 -0.1733507 0.022971243 -0.18475111
0001e0 a4 a7 d1 3d 64 66 fe 3d be f8 1e be 44 d1 f0 bd
       0.10237053 0.12421873 -0.15524575 -0.11758664
0001f0 20 7a fa 3c dd 60 97 3c e3 4e c8 bd 0f 1b f8 bd
       0.030575812 0.018478805 -0.097806714 -0.12114536
000200 c7 10 41 3d d1 2b 12 3e da 20 12 be b4 c1 4d be
       0.04713514 0.14274527 -0.14270344 -0.20093423
000210 f9 72 73 3d 2b 9d 08 3e 34 28 a0 ba 5f 99 bc 3d
       0.05943582 0.13341205 -0.0012219013 0.09208941
000220 a0 73 e7 bc 50 d3 14 be d7 f4 94 3d 6e ca 54 bc
       -0.028253376 -0.14533734 0.07273262 -0.012987716
000230 87 e1 78 bd 50 35 8c 3d b8 0d 8d bd f6 cb c1 bd
       -0.060761955 0.06846106 -0.06887382 -0.094627306
000240 a4 7f ee 3d d4 c5 86 bd b8 8a 3a 3d 73 59 89 be
       0.11645439 -0.065807015 0.04554245 -0.26826057
000250 b4 0d f5 bd c0 ec 9b bd 4c 65 e8 3d 6a 08 23 3e
       -0.11965504 -0.07613516 0.11347446 0.15921178
000260 52 b3 83 3e b0 f8 c5 bd de df 1a be d8 cc 28 3d
       0.25722748 -0.09666574 -0.15124461 0.04121098
000270 ad af 5c be 88 b3 8f bc b8 4b 0f bd 7a 3f 61 3e
       -0.2155139 -0.017541662 -0.03498432 0.2199687
000280 16 0b bd 3d 84 bc 6d bd 5c 2d 03 3d 34 13 51 3d
       0.0923063 -0.05804111 0.03202568 0.051043704
000290 7e e7 d1 bd ec 7c 82 bd 3c 47 24 bd eb 49 33 be
       -0.10249232 -0.06371483 -0.040106997 -0.17508666
0002a0 b0 65 d0 3c 3c d1 4b bc 00 47 0e bc c1 2f 5b be
       0.025439113 -0.012440022 -0.00868392 -0.21404935
0002b0 7c 86 64 3d 80 f6 73 3e 62 78 ff 3c ae c7 b4 bd
       0.055792317 0.23824501 0.031185333 -0.088271484
0002c0 32 78 35 be ca 97 1e 3e 39 7e 21 bd d8 43 8b 3e
       -0.17721632 0.1548759 -0.039427016 0.27200198
0002d0 e8 9c 34 3d f9 7b 07 bd c4 c1 ba bd b3 8a 9e bd
       0.04409495 -0.033077214 -0.09118989 -0.077412985
0002e0 00 76 2b 3b 48 cb ce bc c1 41 8a bc da 35 ce 3d
       0.0026162863 -0.025243416 -0.016877057 0.10068865
0002f0 98 59 0b bd a4 63 1c 3e f0 c1 3b bd 4b 8b a9 bc
       -0.03402099 0.15272385 -0.04583925 -0.020696303
000300 69 d7 89 3d ee e1 83 3d 11 a2 f1 bd c6 81 63 be
       0.06730539 0.06439577 -0.1179849 -0.22217473
000310 e0 df 50 3e 82 45 eb 3d 64 d0 80 3e 2f 63 8d 3c
       0.20397902 0.11487867 0.2515899 0.017259208
000320 8f f9 0b be 9d 21 e1 ba c4 58 40 3e 65 5d c9 bd
       -0.13669418 -0.0017176155 0.18783861 -0.09832267
000330 6f d9 e7 bd a4 1f 56 bd d3 f8 0b be 56 3a 87 3d
       -0.11320769 -0.05227627 -0.13669138 0.066029236
000340 3c ae 1a bd 2c 21 ca bd 5a 11 81 bd a7 95 c4 be
       -0.03776382 -0.09869608 -0.06302138 -0.38395426
000350 ff 79 80 bd c0 82 34 3d 93 ce f3 3d 17 cc 60 3d
       -0.06273269 0.044070005 0.11904635 0.054882135
000360 40 e4 67 3e 2c 32 f2 3d 1e c6 5d be 5d c5 cb 3d
       0.22645664 0.11825976 -0.21657607 0.099497534
000370 a9 1b 89 be 88 f6 bc bc 56 66 ae 3d 11 54 16 3e
       -0.26778916 -0.023066774 0.08515613 0.14680506
000380 ab 4c 8a bd f0 bb 4f bc 28 b8 bc 3d 30 da a3 3c
       -0.067529045 -0.012679085 0.092148125 0.0200015
000390 f6 ac e7 3d c0 f5 c5 3b 00 cf 7c 3a 91 a0 47 bd
       0.113122866 0.0060412586 0.00096438825 -0.048737112
0003a0 fe 52 aa bd 13 26 be be f4 e2 3e 3d a2 30 0e be
       -0.08316611 -0.37138423 0.046603158 -0.1388574
0003b0 0d 82 1f be a3 a6 5d 3e 0f 04 ef 3d 48 db 9a bc
       -0.15576954 0.21645598 0.11670696 -0.01890339
0003c0 c5 cc 8a be 44 2d a2 3d 4d e4 30 3e 79 6e 54 3e
       -0.27109352 0.0791879 0.1727459 0.20745267
0003d0 9d 34 d4 3c d8 25 f9 3a ec 38 2c bd 54 6b c7 be
       0.025903994 0.0019008471 -0.042046472 -0.38949072
0003e0 08 9b e0 3c c0 ef c4 bc 62 71 e1 bd 48 5c 90 3c
       0.027417675 -0.024040103 -0.11007954 0.017622128
0003f0 98 42 dd 3c f4 4b 69 3e b2 68 81 bd 34 de 0d bd
       0.027009293 0.2278288 -0.06318797 -0.034635738

bias f4 [10]
000000 ff 84 20 be 89 c3 80 be 37 57 37 3d 69 5f 20 3d
       -0.15675734 -0.2514918 0.04476091 0.03915349
000010 dc 1e 3c bd a8 29 8a bd 54 65 15 be 0b d6 0c ba
       -0.045927867 -0.067462265 -0.14589435 -0.0005372471
000020 a6 c6 5d be ac 50 57 3b
       -0.2165781 0.003285448

weight f4 [3, 10]
000000 9d 3d 11 3e ee b7 1f 3e 14 2d 4d be ad 35 d0 be
       0.1418366 0.15597507 -0.20036727 -0.4066595
000010 78 bb 0b be ef d7 94 be f9 58 be bd bb 4f 95 ba
       -0.13645732 -0.29070994 -0.09294314 -0.0011391559
000020 b3 4c 02 3d b1 5d dc 3b e6 f4 6d bd c9 f3 b2 bd
       0.031811427 0.006725036 -0.05809488 -0.087379046
000030 12 d4 2c be fc 8a 98 be 4c 97 86 be e3 b2 22 3e
       -0.16877773 -0.29793537 -0.26287305 0.15888552
000040 3a 4c 2f 3d 17 75 4f be c4 61 41 3d 7e 79 7c 3e
       0.042797305 -0.2025951 0.047212377 0.2465572
000050 89 be 42 be e4 28 7f 3d 6c 58 48 3e af 1a 39 3e
       -0.19017996 0.062294856 0.1956498 0.18076585
000060 80 e8 5a be c5 7e 0c 3c 78 a9 a2 bd 9a 21 96 3e
       -0.21377754 0.008575146 -0.0794248 0.2932251
000070 94 5b c9 3b c1 27 52 3e
       0.00614495 0.20522977

bias f4 [3]
000000 cb 26 82 3e f7 06 63 3e bd 75 e8 3d
       0.25420222 0.22170626 0.11350582
