model.pth (torch_old, 13520 bytes, 8 tensors)

weight f4 [64, 6]
0	0x3eda8c0b	0.4268497
1	0xbde1c850	-0.11024535
2	0xbe0b108e	-0.13580534
3	0x3e9b175c	0.3029126
4	0xbd21ca3b	-0.039499503
5	0xbe3d0ba9	-0.18461479
6	0x3fcee81e	1.6164587
7	0x3e9919db	0.2990254
8	0x3df27cdd	0.11840222
9	0x3f94ddc3	1.1630176
10	0xbdf405ee	-0.119151935
11	0x3d1fa922	0.038979657
12	0x3fd0b5d2	1.6305487
13	0x3ee14a88	0.44002175
14	0x3eda5f13	0.4265066
15	0xbe92b93b	-0.28656945
16	0x3e09748a	0.13423362
17	0x3e59a12b	0.21252887
18	0x3dcd872a	0.10035546
19	0xbf13ab55	-0.57683307
20	0xbe2ef74c	-0.17086524
21	0xbe93be56	-0.28856152
22	0x3da8a7a1	0.08235098
23	0x3e8b699b	0.27229008
24	0xbf31cb06	-0.69450414
25	0xbe769927	-0.2408186
26	0xbec964b8	-0.39334655
27	0x3f167aed	0.5878132
28	0xbd55ff21	-0.052245263
29	0x3ec18c1b	0.37802204
30	0xbfa85dd9	-1.315364
31	0x3ec8fd08	0.39255548
32	0x3e8e3630	0.27775717
33	0x3debaa6d	0.115071155
34	0x3e26ed64	0.16301495
35	0xbeac6dee	-0.3367762
36	0xbef32e28	-0.47496152
37	0x3edc329d	0.43007365
38	0x3c064d11	0.008197085
39	0x3e8089a4	0.2510501
40	0xbcc3c83b	-0.023899188
41	0xbe2b1a19	-0.16709174
42	0x3f6234b3	0.8836166
43	0x3e5d5691	0.21615054
44	0xbea36fc9	-0.31921223
45	0xbf9a6cd8	-1.2064466
46	0x3ec8f6e1	0.39250854
47	0xbe0fcadc	-0.14042228
48	0x3e72f61e	0.23726699
49	0xbe8346ae	-0.25639862
50	0x3e968cbe	0.29404253
51	0x3f2bd815	0.6712659
52	0x3df33170	0.11874664
53	0xbf37c31b	-0.7178208
54	0xbfce36f7	-1.6110524
55	0xbdfbab3f	-0.12288522
56	0x3de9abe3	0.11409738
57	0xbd839f76	-0.06426899
58	0x3ca75148	0.0204245
59	0x3e103e19	0.14086188
60	0xbfa2da3c	-1.272285
61	0xbf151786	-0.5823902
62	0x3f445467	0.7669129
63	0xbb323444	-0.0027191797
64	0x3e069cbd	0.13145728
65	0xbed2f7af	-0.41204593
66	0x3f1e1aa5	0.61759406
67	0xbedc27f4	-0.42999232
68	0xbd68b513	-0.05681331
69	0xbf057130	-0.52125835
70	0x3cab5836	0.020916086
71	0xbee40540	-0.44535255
72	0xbe019d91	-0.12657763
73	0xbf119199	-0.5686279
74	0xbd756793	-0.05991323
75	0x3e84c578	0.25931907
76	0xbf0b73bf	-0.5447349
77	0x3e730c28	0.23735106
78	0xbf96bf7d	-1.1777188
79	0xbee518d7	-0.44745514
80	0xbf10d4bc	-0.56574607
81	0x3ea841ec	0.32862794
82	0x3d64903c	0.055801615
83	0xbe8c9c61	-0.27463058
84	0x3e5a0d55	0.21294148
85	0xbf218115	-0.6308759
86	0x3e8cd0aa	0.27502948
87	0xbe633bd0	-0.22190785
88	0x3eed0224	0.46290696
89	0xbecf44ee	-0.40482277
90	0xbf1f29d0	-0.62173176
91	0xbe7fe48c	-0.24989527
92	0xbf1dc59d	-0.6162966
93	0x3ec432b2	0.38319927
94	0x3e9c4517	0.3052146
95	0xbe331191	-0.1748717
96	0xbe69be5f	-0.22826527
97	0xbea20173	-0.3164173
98	0x3d3a8c6c	0.045544073
99	0xbf173a77	-0.59073585
100	0xbd9e3fc2	-0.077270046
101	0x3e910c04	0.2832948
102	0x3e044239	0.12915887
103	0x3e8d22a4	0.2756549
104	0xbe4191c6	-0.18903264
105	0x3e9a7237	0.30165264
106	0x3f5c9275	0.86160976
107	0xbe8dd29b	-0.27699742
108	0xbf42e6e5	-0.7613357
109	0xbe3ffd40	-0.18748951
110	0xbe1202eb	-0.14258926
111	0xbf155fc7	-0.5834927
112	0x3f02294b	0.5084426
113	0x3eba5464	0.3639251
114	0xbfa1310c	-1.2593093
115	0xbf6094c0	-0.87726974
116	0x3f123ff0	0.5712881
117	0x3e3df40c	0.18550128
118	0x3e32f9d3	0.17478113
119	0xbf6ed1e9	-0.9328905
120	0x3eb6b6aa	0.35686237
121	0x3d205587	0.039144065
122	0xbdd8f39f	-0.10593342
123	0x3f523afb	0.8212125
124	0xbe8829da	-0.2659443
125	0x3de3df99	0.11126632
126	0x3fba3f26	1.4550521
127	0xbe56da5f	-0.2098174
128	0xbf0a4ddd	-0.5402506
129	0xbce7a1aa	-0.02827533
130	0x3e2854ec	0.16438645
131	0xbe96520a	-0.29359466
132	0xbf777c6d	-0.96674234
133	0x3e8009fd	0.2500762
134	0x3d6fd823	0.058555733
135	0x3e09108e	0.13385221
136	0x3eaa6142	0.33277327
137	0xbf003808	-0.50085497
138	0xbed9c3da	-0.42532235
139	0x3d9a5d4a	0.07537325
140	0xbddd6312	-0.10809912
141	0xbf19cab4	-0.60074925
142	0x3f5eaa18	0.8697829
143	0x3da0f664	0.07859495
144	0xbf1e3ed4	-0.6181462
145	0x3ed23094	0.41052687
146	0x3db5eb20	0.08882737
147	0xbed03fa1	-0.40673545
148	0x3e21884f	0.15774654
149	0xbf046c02	-0.51727307
150	0xbf88af7c	-1.0678554
151	0xbea53306	-0.3226549
152	0x3ef0baa1	0.47017387
153	0xbf1a8724	-0.6036246
154	0xbeb138da	-0.34613687
155	0xbec97170	-0.39344358
156	0x3e91cb17	0.28475258
157	0x3eb47ab9	0.3524988
158	0x3e808778	0.25103354
159	0x3f5ff14d	0.8747757
160	0xbeac7865	-0.33685604
161	0x3e026457	0.12733589
162	0xbf0baf36	-0.54564226
163	0x3dfbf351	0.12302268
164	0x3e2630b1	0.16229512
165	0x3f0a2566	0.53963315
166	0xbf051bfa	-0.51995814
167	0xbe903e7b	-0.2817267
168	0xbf168c19	-0.5880752
169	0x3cbb3149	0.02285065
170	0xbe078a97	-0.13236462
171	0xbd8f5dd2	-0.07000317
172	0x3dd545e6	0.10413723
173	0xbe0d9106	-0.13824853
174	0xbe815af6	-0.2526471
175	0xbf1fabc8	-0.6237149
176	0x3eadd9c5	0.33955207
177	0xbe7ca670	-0.24672866
178	0xbec17117	-0.37781593
179	0xbe6cd73c	-0.2312898
180	0xbf1771e2	-0.59158146
181	0x3d9fec63	0.07808759
182	0x3e26acd1	0.16276862
183	0x3f83c673	1.0294937
184	0x3ed0bdcd	0.40769807
185	0x3e9f6b98	0.31136775
186	0x3ea4761a	0.32121354
187	0xbeabc096	-0.3354537
188	0xbed8d196	-0.423474
189	0x3dbb0a9c	0.09132883
190	0x3c6378d9	0.013883793
191	0xbcf6ed3a	-0.030142415
192	0xbef183c1	-0.47170833
193	0x3e4ab24a	0.19794574
194	0xbd326d4a	-0.043561257
195	0x3f868017	1.050784
196	0x3eb6df1e	0.357171
197	0x3e64c00a	0.22338882
198	0x3ec164ce	0.3777222
199	0x3d920534	0.07129899
200	0x3e8fe4bc	0.28104198
201	0xbde5e88c	-0.112259954
202	0xbe8298fc	-0.25507343
203	0xbeaed1c3	-0.3414441
204	0x3f534454	0.82526135
205	0xbd64f2c5	-0.055895586
206	0xbe8aea22	-0.27131754
207	0xbe75b0cd	-0.23993225
208	0x3e27ebde	0.1639857
209	0x3cc7f7ab	0.02441009
210	0x3f8c5e00	1.0966187
211	0xbd56ca25	-0.052438874
212	0xbe0be1b2	-0.13660315
213	0xbf2a18dd	-0.6644419
214	0xbd196c56	-0.037456833
215	0xbc18b587	-0.009320623
216	0xbd2621f4	-0.040559724
217	0x3b9e1e5e	0.0048253974
218	0xbe8d2a28	-0.27571225
219	0x3f7aebc1	0.9801598
220	0x3d8eb352	0.069677964
221	0xbeba6681	-0.3640633
222	0x3f33e6e6	0.702742
223	0xbf1f97c7	-0.6234097
224	0xbefe8c2d	-0.4971632
225	0xbd5d6dae	-0.054059677
226	0x3e415923	0.18881659
227	0x3da6d17f	0.08145427
228	0x3f2eb62d	0.6824673
229	0xbe46e07d	-0.19421573
230	0x3e776485	0.24159439
231	0x3eb8f26e	0.3612246
232	0x3e6b66b7	0.22988401
233	0xbf668f4d	-0.9006241
234	0x3e6b64fb	0.2298774
235	0xbdc89300	-0.09793663
236	0xbe2a5f19	-0.1663784
237	0xbe98cb86	-0.29842776
238	0xbd28fe01	-0.041257862
239	0xbed035f2	-0.40666157
240	0x3ffb428f	1.9629687
241	0xbd7b7126	-0.061387204
242	0xbdffd503	-0.12491801
243	0x3e2b6cc8	0.16740716
244	0x3db88792	0.09010233
245	0xbee14f94	-0.44006026
246	0xbd4813cd	-0.04884701
247	0xbec32439	-0.38113573
248	0xbe771838	-0.24130332
249	0xbec95bb5	-0.3932778
250	0xbf0aaba7	-0.5416817
251	0x3dedbe95	0.11608616
252	0xbfac282d	-1.3449761
253	0xbe81edec	-0.25376832
254	0xbe9c8c7d	-0.30575934
255	0xbf8b5a30	-1.0886898

bias f4 [64]
0	0x3e8f985f	0.28045937
1	0xbef41c47	-0.47677824
2	0xbe8a168d	-0.2697033
3	0x3ecc282f	0.39874408
4	0xbf2d5a05	-0.67715484
5	0x3e8b9814	0.27264464
6	0xbe0542be	-0.13013741
7	0xbf0fadf3	-0.561248
8	0x3dc4bd6d	0.096064426
9	0x3eaef9c9	0.34174946
10	0x3ed960f6	0.42456788
11	0xbe96dbc5	-0.29464546
12	0x3d5765c7	0.052587297
13	0x3e71531e	0.23566863
14	0xbe6c7c8d	-0.23094387
15	0xbd67b565	-0.056569476
16	0xbecdc15d	-0.40186587
17	0xbea089b9	-0.31355074
18	0xbeab2532	-0.33426815
19	0x3f07741e	0.52911556
20	0xbe820dc1	-0.25401118
21	0xbe584757	-0.21120964
22	0x3edc9a1a	0.4308632
23	0x3e975389	0.2955592
24	0x3ee25f1c	0.44213188
25	0x3dc7f59d	0.09763644
26	0xbe9e2293	-0.30885753
27	0xbe70515c	-0.23468536
28	0x3d25f376	0.040515386
29	0x3dd1a33c	0.102362126
30	0x3d319e21	0.043363694
31	0xbc24d2e4	-0.010060046
32	0xbf1cc97d	-0.61244947
33	0xbeccd5c1	-0.4000683
34	0xbe0268d1	-0.12735297
35	0xbe639dcf	-0.22228168
36	0x3e83259b	0.25614628
37	0x3eb400cb	0.35156855
38	0x3f0c5002	0.5480958
39	0xbebf1bbd	-0.3732585
40	0x3ebe52c1	0.3717251
41	0xbe7bf91e	-0.2460675
42	0xbde3d0dd	-0.11123822
43	0x3e5e5e6e	0.2171571
44	0xbe1f9b28	-0.15586531
45	0x3ee63fd8	0.44970584
46	0x3e4432fe	0.19160077
47	0xbe868b92	-0.2627836
48	0x3d8c977c	0.06864831
49	0xbf171b45	-0.59025985
50	0x3e9004a8	0.28128552
51	0x3ecf47b5	0.40484396
52	0xbe9f79eb	-0.31147704
53	0xbe43daeb	-0.1912648
54	0x3eec4481	0.46146014
55	0x3e745804	0.238617
56	0x3f0b51bc	0.5442159
57	0xbf0fea9c	-0.5621736
58	0xbea0be10	-0.31395006
59	0x3d97b5cd	0.074077226
60	0x3ea33abe	0.31880754
61	0x3e4746ed	0.1946065
62	0x3edf1a1e	0.43574613
63	0xbe697ddf	-0.22801922

weight f4 [32, 64]
0	0x3da41c29	0.080131836
1	0x3e0640dc	0.1311068
2	0xbd76c1ab	-0.06024329
3	0x3e36073b	0.17776196
4	0x3e335183	0.17511563
5	0xbd0d81b7	-0.034547534
6	0x3e0b2c48	0.1359111
7	0x3ee9a467	0.45633242
8	0xbf273a36	-0.653232
9	0x3e8ae0d4	0.27124655
10	0x3d549387	0.051898506
11	0x3f0b2fd1	0.5436984
12	0x3d24e2e2	0.040255435
13	0x3be5764d	0.007002628
14	0xbf0cb4fa	-0.5496365
15	0x3ee1eb78	0.4412496
16	0x3dc83ac6	0.09776835
17	0x3ed1df05	0.40990463
18	0x3d87f7f9	0.06639094
19	0x3e7b4025	0.24536188
20	0x3e1f64aa	0.15565744
21	0x3d7af9df	0.061273452
22	0xbea39ec0	-0.31957054
23	0xbd7b1cc2	-0.061306722
24	0xbdff645b	-0.12470313
25	0x3e1f0df2	0.15532663
26	0x3e106700	0.14101791
27	0x3e8e7b24	0.27828324
28	0x3e3f660f	0.18691276
29	0x3e6ebf40	0.23315144
30	0x3d83994a	0.06425722
31	0x3d917638	0.071026266
32	0x3db32f7b	0.087492906
33	0xbda701f0	-0.081546664
34	0xbdf06533	-0.11738052
35	0xbbbde2ce	-0.0057948595
36	0x3e5e300d	0.21698017
37	0x3f099596	0.53743875
38	0xbeee617e	-0.46558756
39	0x3c92a113	0.017899072
40	0x3efd2637	0.49443218
41	0xbd267c32	-0.040645786
42	0xbcbccc95	-0.023046771
43	0xbe283d20	-0.16429567
44	0xbe85b984	-0.261181
45	0xbe6fceb2	-0.23418692
46	0xbe33e1c7	-0.17566596
47	0xbca08300	-0.019593716
48	0xba57fd7b	-0.00082393707
49	0xbe6dce10	-0.23223138
50	0xbeb171a4	-0.34657013
51	0xbe76c6ff	-0.24099348
52	0xbdc789bc	-0.097430676
53	0x3e044c7d	0.12919803
54	0xbe4edf00	-0.20202255
55	0x3e38092c	0.17972249
56	0x3e634866	0.22195587
57	0x3e4c63b9	0.19959916
58	0xbf6cdbc5	-0.9252284
59	0xbea0f84d	-0.31439438
60	0xbd9bb1ce	-0.07602273
61	0xbeb0423c	-0.34425533
62	0x3e591202	0.21198276
63	0xbc2c2d09	-0.010508784
64	0xbd610858	-0.054939598
65	0x3e6afc75	0.22947867
66	0x3e644219	0.22290839
67	0x3edb9f8f	0.4289517
68	0xbe81feee	-0.25389808
69	0xbde57056	-0.11203067
70	0xbdfb6e26	-0.122768685
71	0x3f218848	0.63098574
72	0x3e0d9942	0.13827994
73	0xbddae444	-0.106880695
74	0x3f0bb63e	0.54574955
75	0xbe3101a9	-0.1728579
76	0xbd69e889	-0.05710653
77	0xbbdca1b6	-0.0067331446
78	0x3e08cd40	0.13359547
79	0x3f061c36	0.52386796
80	0x3dcc620c	0.099796385
81	0x3f4fcd0d	0.8117226
82	0x3e068617	0.13137089
83	0x3f3e2d41	0.742878
84	0xbe0e4120	-0.1389203
85	0x3dbc515c	0.091952056
86	0xbef310e2	-0.47473818
87	0xbc78bb9d	-0.015181449
88	0xbda9534e	-0.08267842
89	0x3d82245b	0.063545905
90	0xbe707b9f	-0.23484658
91	0xbe3ec509	-0.1862985
92	0xbd0fcb1e	-0.035105817
93	0x3e94fe9e	0.29100507
94	0xbeacb115	-0.33728853
95	0x3d8c34ba	0.06845994
96	0x3d50bc91	0.05096108
97	0x3bdd2b20	0.0067495257
98	0x3ea52620	0.3225565
99	0x3ddecc42	0.10878803
100	0xbe91ea2b	-0.28498968
101	0x3ec1e9d5	0.37873712
102	0x3c256f9f	0.010097413
103	0x3c949f07	0.018142236
104	0x3d838f33	0.064237975
105	0x3dfb8ca9	0.12282688
106	0x3e0e8eff	0.13921736
107	0x3e37df0b	0.17956178
108	0x3e048084	0.1293965
109	0x3f445153	0.7668659
110	0x3e16da03	0.14731602
111	0xbce08963	-0.027409261
112	0xbe707578	-0.23482311
113	0xbc9e5107	-0.019325746
114	0x3e3f2745	0.18667324
115	0x3e29b390	0.16572404
116	0x3d2f5a04	0.042810455
117	0x3e136392	0.14393452
118	0x3e8f0004	0.279297
119	0x3df38c6b	0.11892017
120	0x3d96548e	0.07340346
121	0x3d1905e2	0.037359126
122	0xbf57b312	-0.84257615
123	0xbe4f060a	-0.20217147
124	0x3da6ba17	0.081409626
125	0xbe5c6ae0	-0.21525145
126	0x3d6ea91c	0.058266744
127	0x3e7ac09e	0.2448754
128	0xbddaf47e	-0.106911644
129	0xbe701aec	-0.2344777
130	0xbea94782	-0.3306237
131	0xbee3be15	-0.4448096
132	0x3d094b73	0.03351922
133	0x3d525dde	0.05135905
134	0xbc9ce3b8	-0.019151554
135	0x3db6d99d	0.08928225
136	0x3e4611a5	0.19342668
137	0x3e13f0ee	0.14447376
138	0xbeb0526e	-0.3443789
139	0x3ed56283	0.4167672
140	0x3e7765db	0.24159949
141	0xbee51766	-0.44744414
142	0xbf268841	-0.65051657
143	0x3e158d0e	0.1460459
144	0x3f0061d0	0.5014925
145	0xbe2fb32a	-0.1715819
146	0xbf6e2554	-0.9302571
147	0xbee8c111	-0.45459798
148	0x3e27378a	0.1632978
149	0xbe4d29b3	-0.20035438
150	0x3e82fa6f	0.2558169
151	0x3f75828a	0.9590231
152	0x3e373e13	0.17894773
153	0xbe2fc1a2	-0.17163709
154	0x3e0b9b25	0.13633402
155	0x3e0b5768	0.13607562
156	0x3e08ac25	0.13346918
157	0xbe89b791	-0.26897863
158	0xbdb7437e	-0.0894842
159	0x3e438ce5	0.19096716
160	0xbea7b9d1	-0.32758954
161	0x3c0b3ad0	0.008497909
162	0x3c994a62	0.018712226
163	0x3e16813e	0.1469774
164	0xbb3b9372	-0.002862182
165	0xbe71a84e	-0.2359936
166	0x3e545756	0.20736441
167	0x3ce9326b	0.028466424
168	0xbe13ef39	-0.14446725
169	0xbdda5615	-0.1066095
170	0xbfc3e11f	-1.5303077
171	0x3edc9a9e	0.43086714
172	0x3e5fb3f6	0.21845993
173	0xbe8b2f78	-0.27184653
174	0x3f2c4637	0.6729464
175	0x3efed01b	0.49768147
176	0x3db9237b	0.090399705
177	0xbe88155b	-0.26578793
178	0x3d899862	0.06718518
179	0x3e47989e	0.19491813
180	0x3e7caad6	0.24674544
181	0xbc1b22b4	-0.009468723
182	0xbe3a6980	-0.18204308
183	0x3e08b3fa	0.13349906
184	0xbf254443	-0.64557284
185	0xbf010a42	-0.5040628
186	0xbc9324bc	-0.017961852
187	0xbf322a0f	-0.69595426
188	0x3c2ef9e1	0.010679693
189	0x3d13e275	0.036104638
190	0xbd4fb72f	-0.050711807
191	0x3d1449e4	0.03620328
192	0xbed06388	-0.40700936
193	0xbcb73987	-0.022366298
194	0xbf056cc6	-0.521191
195	0x3e7c69b9	0.24649705
196	0x3e0aa1a0	0.13538218
197	0xbf7a14b8	-0.97687864
198	0xbea152fb	-0.31508622
199	0x3e2d48c6	0.16922292
200	0xbdbfde64	-0.093685895
201	0x3e19899f	0.14993905
202	0xbf08de35	-0.5346406
203	0xbdf191ec	-0.117954105
204	0xbe911c05	-0.2834169
205	0x3f15e679	0.585548
206	0x3e1d0d18	0.15337026
207	0x3ed6bf1f	0.4194269
208	0xbeadc2ee	-0.33937782
209	0xbe10e733	-0.14150696
210	0x3dedf1d1	0.116183884
211	0xbeb4c32e	-0.3530516
212	0xbe4f861b	-0.20266001
213	0x3f443136	0.7663759
214	0xbed969d9	-0.42463568
215	0x3ea6af34	0.32555544
216	0xbe2696c9	-0.16268457
217	0xbe8ffb82	-0.28121573
218	0xbea7b048	-0.3275168
219	0xbd381542	-0.044942148
220	0x3c3e81b9	0.011627608
221	0xbdac3f38	-0.084104955
222	0xbd31dc75	-0.043423135
223	0x3e0aeb61	0.13566352
224	0x3ccf583f	0.025310634
225	0xbbc9b300	-0.0061553717
226	0x3c2d0f88	0.010562785
227	0xbe635467	-0.22200166
228	0x3e37ecb0	0.17961383
229	0x3ec7697f	0.38947675
230	0x3ba28485	0.004959645
231	0xbcd96670	-0.026538104
232	0x3c027c56	0.007964214
233	0xbefe7879	-0.49701288
234	0x3e0547ce	0.13015673
235	0xbeb3bd0f	-0.35105178
236	0xbc16f81d	-0.009214428
237	0xbe2e38a9	-0.17013802
238	0x3d4b929f	0.049700376
239	0xbf715c86	-0.94281805
240	0x3f0ff65f	0.5623531
241	0x3e92a9db	0.28645214
242	0xbd46ba78	-0.048517674
243	0xbf2aa0d4	-0.66651654
244	0xbddbcd2b	-0.10732492
245	0x3ea44feb	0.32092223
246	0xbd6b9f3b	-0.0575249
247	0x3e0a4f74	0.13506871
248	0x3dee5b2c	0.116384834
249	0x3efbf284	0.49208462
250	0xbe8a6385	-0.27029052
251	0x3ea8c755	0.32964578
252	0xbe44fedf	-0.1923785
253	0xbc5aa3d6	-0.013344726
254	0x3dedbccd	0.116082765
255	0xbf1493ad	-0.58037835

bias f4 [32]
0	0x3e06ea49	0.1317531
1	0x3db303e1	0.08740974
2	0x3d7f2057	0.0622867
3	0xbea6fe4f	-0.32615897
4	0x3c89be45	0.01681436
5	0x3e0ab7fa	0.13546744
6	0xbde6bae6	-0.11266117
7	0x3e1ac1fa	0.15113059
8	0xbe28ce78	-0.16485012
9	0x3e254a21	0.16141559
10	0xbdd67c60	-0.104729414
11	0x3cf239b6	0.029568534
12	0xbd584749	-0.052802358
13	0x3d522de6	0.051313303
14	0xbe36c982	-0.17850307
15	0xbeaa373b	-0.33245263
16	0x3daabb62	0.08336522
17	0xbd4a5d81	-0.04940558
18	0xbe323c46	-0.17405805
19	0x3e2edb79	0.1707591
20	0xbe30d2e7	-0.17267953
21	0xbcbf85e1	-0.023379268
22	0xbe54b53e	-0.20772263
23	0x3edc8f4c	0.43078077
24	0xbcf14739	-0.029452907
25	0x3d90e417	0.07074755
26	0x3e2f20b8	0.17102325
27	0xbe215890	-0.1575644
28	0xbe407340	-0.18793964
29	0x3c12f033	0.008968401
30	0xbcd5113b	-0.026009193
31	0xbda1fbdf	-0.07909369

weight f4 [10, 32]
0	0x3df7e07b	0.12103363
1	0x3dde9130	0.10867536
2	0xbee76e5c	-0.45201385
3	0x3e8e5531	0.2779937
4	0x3f1e1984	0.61757684
5	0x3dd2b9f6	0.102893755
6	0x3eaeafe5	0.34118572
7	0xbdce14aa	-0.10062535
8	0x3dbb0b6b	0.09133037
9	0x3dc59bf0	0.09648883
10	0xbe0c326a	-0.13691106
11	0xbe10d490	-0.14143586
12	0x3e757425	0.23970087
13	0xbf07d6ce	-0.5306214
14	0xbccc50da	-0.024940897
15	0xbf36a771	-0.71349245
16	0xbf371a10	-0.71524143
17	0x3d3b32a8	0.045702606
18	0x3e3c4a13	0.18387632
19	0x3f0ba9b7	0.5455584
20	0x3ea5e71b	0.32402882
21	0x3eab53c8	0.33462358
22	0x3e0446a7	0.12917577
23	0x3d267726	0.040640973
24	0x3db74a3e	0.089497074
25	0xbeecc052	-0.4624048
26	0xbe113aac	-0.14182538
27	0xbed16004	-0.40893567
28	0x3f7cc78a	0.9874197
29	0x3d3c741e	0.046009175
30	0x3e5c79de	0.21530864
31	0xbedcee81	-0.43150714
32	0x3eaa6501	0.33280185
33	0x3e487742	0.19576743
34	0x3eaa00be	0.3320369
35	0xbefeb940	-0.4975071
36	0xbe1c7945	-0.15280636
37	0x3dd0272b	0.10163721
38	0x3e890bcd	0.26766816
39	0x3e98800f	0.297852
40	0x3db0485d	0.08607552
41	0x3e821e9b	0.25413975
42	0x3f1cf425	0.61310035
43	0xbdeea0d1	-0.11651767
44	0x3a91847f	0.0011102109
45	0x3f6519c0	0.89492416
46	0x3df4c99c	0.119525164
47	0x3f846df5	1.0346056
48	0x3f060a60	0.5235958
49	0xbe0beb47	-0.1366397
50	0xbf49a026	-0.7875999
51	0xbf4a0ad1	-0.78922755
52	0xbed13dd4	-0.40867484
53	0xbedd0ad0	-0.43172312
54	0xbf925afa	-1.1434014
55	0x3ef88f90	0.4854703
56	0xbe835fd7	-0.25659057
57	0x3f03ce7c	0.51486945
58	0x3e2340a7	0.15942632
59	0x3df61f12	0.12017645
60	0xbf97d82d	-1.1862847
61	0x3e9ab844	0.3021871
62	0x3e5ea437	0.2174233
63	0x3f421dbe	0.7582663
64	0x3d492683	0.049108993
65	0x3f06dc49	0.5267988
66	0xbec866a6	-0.39140815
67	0xbf983bf1	-1.1893293
68	0xbf7fd5b7	-0.9993548
69	0x3e91914a	0.2843116
70	0x3d8de1b2	0.069278136
71	0xbf2521ca	-0.64504683
72	0x3e3b68c1	0.18301679
73	0xbe721270	-0.23639846
74	0x3e89495e	0.26813787
75	0x3bcb054b	0.0061956993
76	0x3e85c015	0.2612311
77	0x3d7b0454	0.061283424
78	0xbde1bf74	-0.11022845
79	0xbed71d77	-0.42014667
80	0x3ccea0f9	0.025223242
81	0x3e0a5761	0.13509895
82	0xbf0102a9	-0.50394684
83	0x3e4ffdba	0.20311633
84	0x3e3069e6	0.17227897
85	0x3ed7d0f3	0.42151603
86	0xbf6db917	-0.9286055
87	0xbd41eb4d	-0.04734354
88	0x3d9d6743	0.07685711
89	0x3dcfd6aa	0.10148366
90	0x3ee693a6	0.45034522
91	0x3f07d2e8	0.5305619
92	0xbbef6ff3	-0.0073070466
93	0x3edae608	0.42753625
94	0x3e90a0cd	0.2824768
95	0x3e963f83	0.2934533
96	0xbd740705	-0.059577007
97	0xbd2d5a5e	-0.04232251
98	0xbe0d5a81	-0.13804056
99	0x3ea4c8d9	0.32184485
100	0x3ed67a6b	0.41890272
101	0x3e8ed8e4	0.2789985
102	0x3ea66e11	0.3250585
103	0xbd0c09d5	-0.034189064
104	0xbcd31f4a	-0.025771756
105	0xbca83f10	-0.020537883
106	0xbe6e0edc	-0.23247856
107	0xbd2f091c	-0.042733297
108	0x3de77923	0.11302402
109	0xbed35020	-0.41272068
110	0x3da849bb	0.08217188
111	0xbf49e665	-0.7886718
112	0xbefbdb13	-0.49190578
113	0xbbfc278f	-0.0076951454
114	0x3d550113	0.052002978
115	0x3f0fc128	0.5615411
116	0x3ed74931	0.42048028
117	0x3ef0e454	0.470492
118	0x3e30900f	0.17242454
119	0x3cdc102e	0.026863184
120	0x3e79f538	0.2440995
121	0xbddcf490	-0.10788834
122	0xbee4b385	-0.44668213
123	0xbe1599d9	-0.1460947
124	0x3f615c26	0.8803123
125	0xbdf7e2f4	-0.12103835
126	0x3ed48c8d	0.41513482
127	0xbd9c2db0	-0.07625902
128	0x3e827a3a	0.25483876
129	0x3f0e3d1b	0.5556199
130	0xbe2b568a	-0.16732231
131	0x3e87f96b	0.26557478
132	0xbe864b73	-0.26229438
133	0x3f163b88	0.5868459
134	0xbe9e2ce1	-0.30893615
135	0xbe45c0ca	-0.19311824
136	0xbbef18e1	-0.007296667
137	0xbc315ca3	-0.010825309
138	0xbf11dd1a	-0.56978
139	0x3e0e8d43	0.13921075
140	0xbe13c823	-0.14431815
141	0xbf32f46b	-0.699042
142	0x3d17889f	0.036995526
143	0xbf27938a	-0.654595
144	0xbe0eb018	-0.13934362
145	0x3d21de28	0.039518505
146	0xbe43d36c	-0.1912362
147	0x3ede562d	0.43425122
148	0x3f313375	0.6921914
149	0x3f371a8a	0.7152487
150	0xbee63aaa	-0.44966632
151	0x3dec62a5	0.115422525
152	0x3f4a99b5	0.7914079
153	0xbed964d4	-0.42459738
154	0x3e3b6445	0.18299969
155	0xbde46310	-0.11151707
156	0x3f889902	1.0671694
157	0xbe9b506b	-0.30334792
158	0xbe97e7b4	-0.29668963
159	0x3e3a3513	0.18184309
160	0x3da6835d	0.08130524
161	0xbe9855f8	-0.2975309
162	0x3f419864	0.75623155
163	0xbe8ed678	-0.27898002
164	0xbdf2d557	-0.118570976
165	0xbf77b1d4	-0.9675572
166	0x3dcc57ed	0.09977708
167	0xbef0565c	-0.46940887
168	0x3e04fd55	0.12987264
169	0xbeec05bd	-0.46098128
170	0xbbefaf0d	-0.007314569
171	0x3da936bf	0.08262395
172	0x3dfd7e42	0.123775974
173	0x3d39ae1e	0.045332067
174	0x3d8eed01	0.06978799
175	0xbe04cc16	-0.12968478
176	0xbeababf8	-0.3352964
177	0x3dba8e6a	0.091091946
178	0x3f15ff8b	0.5859305
179	0xbe01618d	-0.12634869
180	0xbd53985e	-0.05165898
181	0x3f03059c	0.51180434
182	0xbdbe3ead	-0.09289298
183	0xbfa4bb71	-1.2869703
184	0xbe834e2c	-0.25645578
185	0x3f69f7f0	0.9139395
186	0x3e07f403	0.13276677
187	0xbe967241	-0.29384044
188	0x3d5eacad	0.054363895
189	0xbd0f77f9	-0.035026524
190	0xbf275b10	-0.65373325
191	0xbe2a43cc	-0.16627425
192	0x3e45e871	0.1932695
193	0x3e9acd1b	0.30234608
194	0x3d9bf2c4	0.07614663
195	0xbedd0dc0	-0.43174553
196	0xbe7df019	-0.24798621
197	0x3ed3da20	0.41377354
198	0xbe6862b0	-0.22693896
199	0x3e1df1ce	0.15424272
200	0x3db12bb1	0.086509116
201	0x3e6f806d	0.23388834
202	0x3f1631f0	0.5866995
203	0xbdfc51f2	-0.12320317
204	0x3ccfee1d	0.025382096
205	0x3b1bddb4	0.0023783268
206	0xbdccc420	-0.099983454
207	0x3f465636	0.774753
208	0x3e9881b2	0.2978645
209	0xbdf43d62	-0.1192577
210	0xbf7deffb	-0.99194306
211	0xbe8484ad	-0.25882474
212	0xbd0b3e2a	-0.03399483
213	0xbd1a4313	-0.037661623
214	0xbfbbfb60	-1.4686089
215	0x3e604e54	0.2190488
216	0x3e2a0cda	0.16606465
217	0xbc9f10b4	-0.019417144
218	0x3e42b3cf	0.19013904
219	0x3f03ca42	0.51480496
220	0xbf5a2a33	-0.8522064
221	0xbe19d517	-0.15022694
222	0x3e0819de	0.13291118
223	0x3eaf60a3	0.34253415
224	0x3c2dacca	0.010600278
225	0x398a2f4a	0.00026356644
226	0x3da30b5a	0.079611495
227	0x3ed4bd03	0.41550454
228	0x3ede8f9c	0.4346894
229	0x3e0af727	0.13570844
230	0x3f093d77	0.5360941
231	0xbd9ca971	-0.07649506
232	0xbca1b025	-0.019737313
233	0x3d73ded1	0.059538666
234	0xbeb216b7	-0.34782955
235	0xbd074bb8	-0.033031195
236	0x3ec7c33c	0.3901614
237	0xbf5de5f6	-0.8667902
238	0x3d4eab5a	0.050456382
239	0xbf1d015c	-0.613302
240	0xbf657ad2	-0.89640534
241	0x3d0d681c	0.034523115
242	0x3e78ce16	0.24297366
243	0x3f1adae6	0.6049026
244	0x3f0d37c1	0.551632
245	0x3e877c17	0.2646186
246	0x3d8f3ed1	0.06994403
247	0x3dc1b159	0.094576545
248	0xbdeee02f	-0.116638534
249	0xbd33b8ea	-0.04387752
250	0x3d0d6838	0.03452322
251	0xbe813a83	-0.25239953
252	0x3f6eb868	0.9325013
253	0x3d42b063	0.047531497
254	0x3e970a9b	0.2950028
255	0xbf254514	-0.6455853

bias f4 [10]
0	0xbd403f86	-0.04693558
1	0x3e79d516	0.24397692
2	0x3e3851bb	0.17999928
3	0xbe14539e	-0.14485022
4	0x3dad4f53	0.084623955
5	0x3d8cbd13	0.068720005
6	0x3e68eafc	0.2274589
7	0xbde1d65b	-0.11027213
8	0x3de4b56e	0.111674175
9	0xbe0f7599	-0.14009704

weight f4 [3, 10]
0	0x3f21e2b9	0.63236576
1	0xbf582959	-0.8443809
2	0x3eb84d87	0.3599665
3	0x3f299992	0.66249955
4	0x3ee36651	0.44414
5	0xbfe50c74	-1.7894425
6	0xbf32c63b	-0.69833726
7	0x3f234987	0.6378407
8	0x3e342fc5	0.17596348
9	0x3ed91596	0.4239928
10	0xbf279d42	-0.6547433
11	0xbc6b6c01	-0.014369012
12	0x3f1426bd	0.5787161
13	0xbf17af6b	-0.5925204
14	0xbdf74f3d	-0.120756604
15	0x3f8729b0	1.0559597
16	0x3ed4f493	0.41592845
17	0xbf2f39cb	-0.6844756
18	0x3f0ab3cd	0.54180604
19	0x3e8e3a37	0.2777879
20	0x3eae17d0	0.34002542
21	0x3eb10c49	0.34579685
22	0xbf6362d4	-0.88822675
23	0x3e94fa7f	0.29097363
24	0xbf94a3ff	-1.1612548
25	0x3ee61df3	0.44944724
26	0x3cc95a11	0.02457908
27	0x3e977bdf	0.29586694
28	0xbf886179	-1.0654746
29	0xbf110087	-0.5664143

bias f4 [3]
0	0xbe1da102	-0.15393451
1	0xbe05e278	-0.13074672
2	0x3ee14adb	0.44002423
