model.pth (torch_old, 6182 bytes, 6 tensors)

weight f4 [64, 6]
00000000: 2ec3 04be 7ad8 313e 179c 82bd 1e27 913f
00000010: 957a fcbe 8ddf 643c b6a9 ef3c 2c4c 133d
00000020: 94ff a3be 111a bf3c f2ea f73e ada0 ba3c
00000030: 3029 11be 373d a53e a1ef 2a3e 040e ab3e
00000040: 757e fcbe 52b0 28be 1df2 9d3e f4f1 a53e
00000050: 4f9d 3fbe 7cee 153f ecee 70be c680 b4ba
00000060: 9d13 8cbd 8cb4 5d3e 176c 453e 7460 b43e
00000070: 278f e8be 4dc9 90bd db41 c13c e316 6cbd
00000080: 130c 2a3e b602 dabe 198d 133f 70b2 4e3e
00000090: 8340 c0bd fdca 453e b0af 4a3e 9264 dd3e
000000a0: 484f 48bd 4422 15be 8ed1 4cbc 89ba 80be
000000b0: 8abe 483e 36eb 343e cd01 7ebe b430 cfbe
000000c0: dd85 463e ca72 2e3e 7ea1 04bf 8159 133f
000000d0: eaf6 abbe 0f94 30bc 0d81 ac3d 18f6 32be
000000e0: 0ac5 5f3e 11ab 57be 3766 ab3e 5155 1bbe
000000f0: 5d96 f03d 3aa1 21be 2aa4 1f3d 36a9 d13e
00000100: 8cbe 34bd 2118 9abd 4865 093e 7eab 7ebe
00000110: 8013 dcbc 3006 84be 50a1 cfbd 56b4 aabe
00000120: ca5c 68be bc1e 87be 0a2c 9b3e da51 72be
00000130: c720 bcbe e4fb a4bd 4395 97bd 3337 a63c
00000140: ec6c 933e 77fc 283f a14f 37bd b557 44bd
00000150: 8805 cfbd fad1 9d3e 16e9 92be 4691 463e
00000160: b045 e8be bd79 2fbe d608 953e 06b5 b4be
00000170: 0233 693e ac77 47be 39fe 1a3f 35e8 693e
00000180: 7122 493d ff31 9cbe db9c cf3c 7969 87be
00000190: bd3b 9b3e 4eed 7bbe 4c44 7abe 02a0 35bd
000001a0: 1431 c33e 59ad e83e 32ad cdbe daef c13d
000001b0: 516c 973d 8b57 ff3d 3246 fa3d 96fb ca3c
000001c0: c215 c03e 9817 6cbe e3d1 873e 678d 5ebe
000001d0: 2751 c6be 89ae 9cbe 885b aebe fb22 e3bd
000001e0: 9fc5 b53e cde7 3dbe 6e84 19be 5261 a03f
000001f0: bd59 71bf a3ed b5bd 3a3b d8be ddc5 53be
00000200: 8dfb d63c de07 e0be 2ca0 823d 07eb 863e
00000210: 4f9b abbe ff2e 7c3e c997 d7bd 4f90 ddbe
00000220: 5bb1 df3c 0347 a3bc 2595 5abe be7c 86bc
00000230: 4838 1ebe c8a9 a3be b6d3 ff3e d0f7 763e
00000240: e87c 073e 5677 c1be f408 933e 95ed a43e
00000250: 4cc9 b13e 53d9 90be caaf 37be d3e5 293e
00000260: 4095 4f3d c9ef dfbe 5419 1e3f 8854 963e
00000270: 6d13 06be b0d0 6a3e 479f e23c c132 353f
00000280: 2752 b33e ae7e 583c b44e 97be 2c54 1dbe
00000290: a8df 4a3e 1000 9cbe e571 c7be f07d bcbe
000002a0: a083 ce3d 3f13 7dbe d0a3 053d 2ea5 b9be
000002b0: 4889 793d bcbd afbe f1a1 b9be 28a3 143e
000002c0: d599 37be 809b 96bb f491 913d 8d8c 8ebe
000002d0: dcf5 10bd 4a8f a1bd 5829 c7be d588 b0bd
000002e0: 0c29 a2be 490b 9abe f49c 203e dca3 e2be
000002f0: ee63 823e 735b 0dbf b038 413f b7b6 5dbe
00000300: 3a6f 013d 274b bfbe 3fab 9d3e 74ca 76bf
00000310: 87d3 0a3f 0104 26bf 2b02 a73d b07f 3bbd
00000320: 9aa7 0ebe b5f8 c23d 8c9d c03d ea5d 8a3d
00000330: 9bca 8e3e 6d6d 843e 951d 85be b509 a23e
00000340: 0d2b b8be f552 7b3e cdf6 d0be 45f2 923d
00000350: ad23 aabe f443 673d 555e ab3e 5e02 df3d
00000360: a985 b7be c811 65be 0a58 bcbe 24cc 033e
00000370: 50c6 b3bd e0a2 c03c 54f2 0dbe 8801 aabe
00000380: 4871 b7bc 3c44 7a3e bbc7 db3d c98c 883e
00000390: 7847 b5be c61f 8f3e fa1f a8be 06c5 873e
000003a0: c89a 0fbe 3fcb 19be 0e28 e23d b28d 30be
000003b0: f5f3 c83c c8fb d9be 12e6 bb3d caf9 16be
000003c0: 85b3 ecbe 97c0 8b3d 7bb2 62be 5a0f e4be
000003d0: bc57 1d3f d020 543e 2ccf 5e3e 811c 9d3c
000003e0: 0a97 86be b8cf 09bf e014 eebd c637 61be
000003f0: fcb7 6f3e 7054 173e 0598 57be 50ec 1b3f
-0.1296508 0.17367736 -0.06377428 1.1340063 -0.49312273 0.013969314 0.02925573 0.035961315
-0.32030928 0.02332786 0.48421437 0.022781694 -0.14175868 0.32273266 0.16692974 0.3340913
-0.4931523 -0.16473511 0.3084878 0.32411158 -0.18712352 0.58567023 -0.23528641 -0.0013771288
-0.068396784 0.21650904 0.19279514 0.35229838 -0.45421717 -0.07069645 0.023590973 -0.057639014
0.16606168 -0.42580193 0.5763717 0.20185256 -0.09387305 0.19315715 0.19793582 0.43240792
-0.048903733 -0.14563853 -0.012501134 -0.25142315 0.19603935 0.17667851 -0.24805374 -0.40466845
0.19387002 0.17035976 -0.5180892 0.5755845 -0.33586818 -0.010777487 0.08423052 -0.1747669
0.21852508 -0.2106135 0.3347642 -0.15169264 0.117474295 -0.1578416 0.03897492 0.4094941
-0.044127032 -0.075241335 0.13417542 -0.24870107 -0.026864767 -0.2578597 -0.1013819 -0.3334071
-0.22691646 -0.26390636 0.30307037 -0.23664036 -0.36743757 -0.08055857 -0.07401516 0.020289993
0.28794038 0.6601023 -0.044753674 -0.047935206 -0.10108477 0.30824262 -0.28693455 0.19391355
-0.45365667 -0.17136283 0.29108304 -0.3529436 0.22773364 -0.19479245 0.60544163 0.22842486
0.04910511 -0.30506894 0.02534335 -0.26447657 0.30319014 -0.24602243 -0.24440116 -0.04434205
0.3812338 0.45444754 -0.401712 0.09469576 0.073937066 0.12467869 0.1222042 0.024778169
0.375166 -0.23055875 0.26527318 -0.21733628 -0.3873379 -0.3060191 -0.34054208 -0.11090656
0.35502335 -0.18545456 -0.14991924 1.25297 -0.94277555 -0.08883216 -0.42232686 -0.20680948
0.026242996 -0.43756002 0.063782066 0.26351187 -0.3351693 0.24627303 -0.105269976 -0.4327416
0.02730625 -0.019931322 -0.21345957 -0.016416904 -0.15451157 -0.3196547 0.4996621 0.2411797
0.13231242 -0.3778636 0.28717768 0.3221251 0.3472389 -0.28290805 -0.17938152 0.16591577
0.050679445 -0.4373763 0.617574 0.29361367 -0.13093348 0.2293117 0.02766384 0.7078057
0.35023615 0.013213797 -0.29552233 -0.1536414 0.1981188 -0.30468798 -0.38954082 -0.36814833
0.10083699 -0.24714373 0.032626927 -0.36258835 0.060921937 -0.34324443 -0.36256364 0.14515364
-0.17929776 -0.0045961738 0.071079165 -0.27841607 -0.03539072 -0.07888658 -0.3889873 -0.08619849
-0.3167194 -0.30086735 0.15684873 -0.4426564 0.25466865 -0.55217665 0.75477123 -0.21651731
0.031600215 -0.37362024 0.30794713 -0.9640267 0.54229015 -0.6484986 0.081547104 -0.04577607
-0.13931122 0.09520093 0.0940505 0.06756194 0.2788895 0.25864735 -0.25999132 0.3164803
-0.35970345 0.24543364 -0.40813294 0.071751155 -0.33230343 0.05646129 0.33470407 0.108891234
-0.35844162 -0.22370064 -0.36785918 0.12870842 -0.087780595 0.023515165 -0.13861972 -0.33204293
-0.022392884 0.24440092 0.10731455 0.2666991 -0.3540609 0.2795393 -0.32836896 0.26517504
-0.14023888 -0.15018938 0.11042796 -0.17241552 0.02453039 -0.42574906 0.09174742 -0.14743724
-0.46230713 0.06823843 -0.22138397 -0.44542962 0.61462 0.20715642 0.21758717 0.01917863
-0.2628711 -0.5383258 -0.11625075 -0.21993932 0.23410028 0.14778304 -0.21054085 0.6090746

bias f4 [64]
00000000: 97e6 b83e 1de3 cbbe a9f5 d23e e422 df3e
00000010: cd86 ff3e ad8d 43bf f1d0 2b3f b20b df3d
00000020: cfd5 4ebe dc17 fdbd 54b4 60be b0d8 9ebe
00000030: 0ee2 32be 89b7 aa3e 63fa 213f 1556 50bf
00000040: 13bb 8abe a8cf c63e 7cf1 50be 4fdc 1dbe
00000050: 42f5 9d3f fb73 2cbb a91b dfbe 88bd 1bbe
00000060: ef85 913d db82 d2be 1ae5 cb3e a0f6 96bd
00000070: c432 a13e 8ccd b4be 7ba7 863d 3046 fe3e
00000080: 5a41 f63e 4d9c 05bf 8707 233d 5ed9 703e
00000090: c8d2 40bd 6967 8dbe 010c cb3e c7eb 1fbd
000000a0: 9244 e3be 57d9 4a3e eb00 eb3e ede2 fd3d
000000b0: e195 16bf 202d 40be de3b ae3e 2de0 3a3e
000000c0: a0a3 84bc 0ed2 883f ef4e 8fbe f957 e2be
000000d0: 93ca 55bf 4e55 743e 4fa1 1f3f 55ed 6f3f
000000e0: 699d 09be 687e 303e ab03 6cbe e4e4 2abc
000000f0: 8fe7 0cbf 793f 5abe ffaa ad3e 2af8 36be
0.36113426 -0.3982171 0.4120305 0.43581307 0.49907532 -0.76388055 0.67115694 0.108909026
-0.20198749 -0.123580664 -0.2194379 -0.31024694 -0.17469046 0.3334315 0.63272685 -0.8138135
-0.2709585 0.38830304 -0.20404619 -0.15416072 1.2340472 -0.0026314247 -0.4357579 -0.15209019
0.07105624 -0.4111546 0.39823228 -0.07371259 0.31484044 -0.3531307 0.06574913 0.49662924
0.48096734 -0.5219162 0.0398021 0.23520419 -0.047076017 -0.27617958 0.39657596 -0.039043214
-0.44388252 0.19809471 0.45899138 0.12396798 -0.5882245 -0.18767214 0.3403005 0.18249579
-0.016191304 1.0689104 -0.2798991 -0.44207743 -0.8351223 0.23860666 0.6235551 0.93721515
-0.13438953 0.1723572 -0.23048274 -0.010430548 -0.5504083 -0.21313275 0.33919522 -0.17868105

weight f4 [10, 64]
00000000: 169b 973d 6910 2ebd 6cd9 01be 37c2 4cbd
00000010: 42f4 2d3d ce57 eb3c 6904 89bd ec02 2cbd
00000020: d8e5 a63d 0810 843d afe2 4abd f866 553d
00000030: 6a13 bc3d c57d 86bd 42f1 c6bd f90d 183d
00000040: c446 283d a55b c9bd 2c30 a3bc 4953 0b3e
00000050: 640b 643d c1c1 b9bd 81f9 3c3d 7cd5 793d
00000060: c733 3d3d 73f9 ae3c 7e17 24bd 12f6 97bd
00000070: ac2e fa3d c0dd ffbb f8e6 cb3d 633c 2f3d
00000080: 2243 ffbd 2e28 9dbd 2017 07be c6a4 03be
00000090: c0fe 0dbc d6e7 9e3d 6756 9a3d cc56 74bd
000000a0: 4f50 453d 519f 983d 0d25 aabc c824 22be
000000b0: 51e3 56bd 7b66 6f3d 1020 44bd 3c70 8c3d
000000c0: 2066 5abd 91a5 e2bc 6a62 e4bd a601 8bbd
000000d0: cc87 d6bb e9e7 4abc 30fa a73d 092e 36bd
000000e0: dfac fdbc d858 ff3c 3979 8bbd 4429 0cbd
000000f0: e576 1c3d 9750 153c 9ab2 adbd c807 1fbd
00000100: 0345 013e 44af 20bc 0dd4 d73d 01d1 003e
00000110: d6d0 b63d d815 b8bd 785b d23d af71 c0bd
00000120: d206 dbbb 7dd0 b4bc 1e5a 34bd 8c70 3d3d
00000130: 9027 2f3d 4598 e43d 1ae8 ae3d 2bcb 1dbd
00000140: c30d 24bd fc14 b23c 6089 50bc deb4 91bd
00000150: 2f01 453e 2cd0 dcbb 5369 71bc de1d 66bd
00000160: dde8 c93c a20f 97bd 3752 1a3d e028 ff3d
00000170: 5819 9dbd 1885 78bd e2ed 27bd 8820 103e
00000180: d15f 9b3e a858 04bd 3a3f 823c 30da f9bb
00000190: 30b2 ffbc ccaf f5bb 891b 3f3e 74e2 ca3c
000001a0: e9fe cbbc 927c 373d ce16 fa3d 1b26 143b
000001b0: abf0 5cbd 54c5 3c3d 983b d63c 6a26 52bd
000001c0: 98a3 233d fae9 253e 60c5 e8bc a84d 18bd
000001d0: fa98 aabd 235a 543d 2d67 a33d f83f ff3d
000001e0: 7a8e bdbc 76f2 2d3a ceeb 87bd fbe7 853c
000001f0: 6297 06bc 4546 73bc 9ab6 7c3c 2624 bd3d
00000200: 2ec2 5b3d 22a3 a13d 4a2e e9bd ef22 4cbd
00000210: 0d65 f3bd 2ec6 41bd 5ca5 12be d81c 883d
00000220: dbfd d13c 85b1 f6bd df9d fe3b 205d 8dbc
00000230: 64b7 40bd 2227 9dbc 96d9 93bd 1485 09be
00000240: 4292 9b3d 1a2b 0cbe c7a0 963d 3aac ff3c
00000250: ee4f d7bd 2019 d3bd 065f 0a3d ac4d 603c
00000260: c3b1 bdbd 6e8f 23be 296b 733d 002c bdbc
00000270: b6bb eebd 8a4d 853d 9080 88bc 9996 4b3d
00000280: 040c 08be e1fa a13c 31aa 78bc 2be6 46bb
00000290: 4030 b3bc 0a80 ae3d b697 b43d f425 9e3d
000002a0: 8eb7 993a 2298 a4bc 3e4a 633d 07ac b0bd
000002b0: 8f4d 083c 9159 2ebd 724d f9bd 947e 483d
000002c0: b823 d83d 04be 1dbe a6c4 f1bd 5881 623d
000002d0: bdf0 483c 9ad0 29bd 194b 37bd b47f 683d
000002e0: b479 eebd ed60 193d 8576 03bd 7e47 23be
000002f0: f227 f8bd 60b3 963d 0674 fc3d be3b dbbd
00000300: 856d 0dbe 5159 8ebd f3a6 c4bd c994 abbd
00000310: b0a3 193d cd4e 5bbd 3769 f7bc 1880 923d
00000320: cb18 ef3c c8e8 7f3d 4b18 e4bd 84f5 103d
00000330: 8470 1c3d ef2d e73b 5422 49bd 8b06 96bd
00000340: 00bb 07bc 68ed b53c 07ee 473d 2062 84bb
00000350: 805e c8bb 40c6 ac3d 00d7 fcbd 895f 03bd
00000360: ff09 bbbd 5bd5 523d 65f7 7a3d 1465 69bd
00000370: b6f8 dbbd 30fa ae3c 6055 203d b5bd 323c
00000380: d291 b43d 3c15 d3bd 8022 0ebe b7df 4c3d
00000390: 6065 d0bc e25a aabd 64b2 fabd 402a 8e3b
000003a0: 3adc bdbd c85b 3fbd 7f9e 1f3d f0fc 923d
000003b0: 497f b4bd 380c 83bd 0077 adba 44dc 753d
000003c0: f02f 3fbc 8089 6b3b c04c 273b 0cc2 ccbd
000003d0: 7260 f7bd 40e1 623d 4c2c c0bd b774 0abd
000003e0: d8e1 01bd 2e3d d53d bf2b ecbd 1212 d13d
000003f0: 7abe c2bd c0f8 b43d 48b4 d63c 5c87 f73d
0.07402627 -0.04249612 -0.12680596 -0.049989905 0.04246927 0.028728392 -0.06690294 -0.041994974
0.08149308 0.0644837 -0.04953259 0.05210015 0.091833904 -0.065669574 -0.09713985 0.0371227
0.041083112 -0.09831933 -0.019920431 0.1360599 0.055674925 -0.09070159 0.046136383 0.06099461
0.046191957 0.021359181 -0.040061466 -0.07419981 0.12215933 -0.007808417 0.09956163 0.0427822
-0.124639764 -0.07673679 -0.13192415 -0.12855825 -0.008666694 0.07759063 0.07536011 -0.05965309
0.04817229 0.07452262 -0.02076962 -0.15834343 -0.05246288 0.058447342 -0.04788214 0.068573445
-0.05332005 -0.027666839 -0.111515835 -0.06787424 -0.00654695 -0.012384393 0.08202016 -0.044477496
-0.03096622 0.031170294 -0.06810231 -0.03421904 0.038199324 0.009113452 -0.08481331 -0.03882578
0.12623982 -0.009807412 0.10538492 0.12579729 0.08926551 -0.08988541 0.102713525 -0.093966834
-0.0066841627 -0.022072071 -0.044031255 0.04624991 0.04276234 0.111618556 0.085403636 -0.038523834
-0.040052187 0.021738522 -0.012728065 -0.07114576 0.19238733 -0.006738683 -0.014734584 -0.056180827
0.02464717 -0.073760286 0.037676062 0.12458968 -0.076708496 -0.060673803 -0.040998347 0.1407491
0.3034654 -0.03231111 0.01589929 -0.007624887 -0.031212896 -0.0074977633 0.18662848 0.024766184
-0.024901824 0.044796534 0.12211381 0.002260572 -0.053940456 0.046086624 0.026151463 -0.051306166
0.039950937 0.16202536 -0.028414428 -0.037183434 -0.08329959 0.051843774 0.079786636 0.12463373
-0.023139227 0.0006635556 -0.06636773 0.016345968 -0.008214803 -0.0148482965 0.015424395 0.092354104
0.05365198 0.07892443 -0.11385782 -0.049838003 -0.11884508 -0.04730814 -0.14320892 0.066461265
0.025633743 -0.12045578 0.0077702845 -0.01725632 -0.047049895 -0.019183699 -0.072192356 -0.13429672
0.07596256 -0.13688317 0.073548846 0.031210054 -0.10513292 -0.103075266 0.033782028 0.013690393
-0.09262421 -0.15972683 0.059428368 -0.02309227 -0.11656897 0.0650893 -0.016662866 0.049704168
-0.13285834 0.019772949 -0.015177296 -0.0030349593 -0.021873593 0.08520515 0.08817999 0.07722083
0.0011727677 -0.020092074 0.055490725 -0.086265616 0.008319273 -0.042565886 -0.12172975 0.04894884
0.10553688 -0.15404516 -0.11805086 0.055299133 0.012264428 -0.041458704 -0.044749353 0.056762412
-0.11644307 0.03744595 -0.03209545 -0.15945241 -0.12116994 0.07358432 0.12326817 -0.10704754
-0.1381131 -0.069506295 -0.096021555 -0.08377988 0.03750962 -0.053541947 -0.030201538 0.07153338
0.029186627 0.062477857 -0.11137446 0.035390392 0.03819324 0.0070550363 -0.049105003 -0.07325467
-0.00828433 0.02220793 0.048810985 -0.0040400177 -0.006114781 0.08436251 -0.123456955 -0.03207353
-0.09132766 0.051473003 0.06127109 -0.05698116 -0.10740797 0.021359533 0.03914392 0.0109094875
0.088168755 -0.103067845 -0.13880348 0.05001804 -0.025438964 -0.08318116 -0.122410566 0.0043385327
-0.092705205 -0.04671839 0.038969513 0.0717715 -0.0881334 -0.06398815 -0.0013234317 0.060024515
-0.011669144 0.003594011 0.0025527924 -0.09997949 -0.12078942 0.055390596 -0.09383449 -0.033802714
-0.031709522 0.1041206 -0.115317814 0.10208525 -0.09508987 0.08836508 0.026209012 0.120863646

bias f4 [10]
00000000: af3d 393d 113f 353f 2864 03bd 8103 92bd
00000010: 1c6a f6bd 5d78 84bd 9feb 043f a1cf 0fbe
00000020: d8b6 ddbc 6a6b b7bd
0.04522484 0.70799357 -0.03207794 -0.071295746 -0.120319575 -0.0646827 0.5192203 -0.14044048
-0.027064726 -0.089560345

weight f4 [3, 10]
00000000: 751a e7bd d249 d4bd 5012 853d 7d8f 773d
00000010: 8f14 63bd eb31 88bc 9ef0 d6bd 7802 48be
00000020: e3c4 8dbe b621 7bbe 0096 693e 02d7 4f3d
00000030: 0e2c 9dbd caf2 503e 2fd7 c63c e338 1ebe
00000040: 2844 823c 4020 9c3a 289d 013e 3e1b 29be
00000050: 9de0 403e 7400 0a3e abe6 19be 2d67 37be
00000060: 6fac 97be 2dc3 9b3c 4d99 933d 48f1 9dbc
00000070: e259 163e 86a5 63be
-0.11284343 -0.103656426 0.064976335 0.060439575 -0.055439528 -0.016625365 -0.10495113 -0.19532192
-0.27689275 -0.24524578 0.22811127 0.050742157 -0.076744184 0.20405117 0.02427253 -0.15451388
0.01590164 0.0011911467 0.12657607 -0.16514298 0.18835683 0.13476735 -0.15029399 -0.17910452
-0.29623744 0.019013966 0.07206974 -0.01928009 0.14682725 -0.22231111

bias f4 [3]
00000000: a7d5 03bf 5914 bebe 1d8e be3e
-0.5149788 -0.371249 0.372178
