Final_Demo_Files/nubs/model.pth (torch_old, 12158 bytes, 6 tensors)

weight f4 [64, 6]
00000000: 7781 cdbe b58f 18be 7243 abbe 819f c73d
00000010: f66d 74be cddc 94be 4d1a 34bf d253 e23d
00000020: 9611 f2be ed49 39bd 5b91 933c 05b1 30be
00000030: 24d6 903e 50bb 353e 07d4 1b3e b800 213e
00000040: 1beb 9bbe 2ca6 c43d 9cd8 24be 0400 99be
00000050: 6fcf 6fbd 5685 e23e 0f92 3f3f a21e 98be
00000060: 4822 8a3e 3048 a2bd d0d9 34bd d8a4 103e
00000070: c8f8 e9bd b5ef 56be 0ec8 8fbe 8998 bbbe
00000080: 3bc0 a4bb 09c7 c0be fa22 c7be f9ed a43e
00000090: 2a1b 20bf 7125 d8be 3830 21be 7d48 b2b9
000000a0: fa49 4b3d 5b23 1a3e d007 213f fb78 bf3e
000000b0: 3dc9 a13e 5e30 10be 0a6e d7be b551 373e
000000c0: baeb 37be fa3d c4be b93a afbe e2a2 9a3e
000000d0: cfe5 4fbe 8497 d03d e84f cebe c2f9 2dbe
000000e0: b06e b4be e7ac eabe 9671 48be 06f0 80be
000000f0: ccc0 c23e c6de 2c3e fc88 babe 8392 32bd
00000100: 5f30 4dbe bc16 583e e032 dc3e 5968 a03e
00000110: 48d9 423d b8ce a9be 2907 e73e 1578 37be
00000120: 849b 1ebe 6596 8d3c c0e1 17be cc77 f53e
00000130: 2d33 d53e 4e7d 533e 7545 05bc eaaa 803e
00000140: 226b 163e 108d c0be 7c8d 19bf b579 d9be
00000150: dd6a f4be de87 c33e 62d2 853d 3d7b c0be
00000160: 86e7 053f 8ee1 0f3e 8b1f 1e3f c4da 1d3e
00000170: 8e8f a1bd 2980 98be 0bc2 13bd c849 42be
00000180: c629 11be 6438 56be c015 053d d86c d93d
00000190: 4c94 8f3d 362c 93be 6688 163d 16f2 a3be
000001a0: a76a 6b3e 86e0 d6be 33cf 503d 47eb 7d3c
000001b0: 2b56 aebe ed8f a8bd 5579 3abe 9787 11bf
000001c0: 2d2c 143f 3051 c8be e5b8 20bd de26 2bbe
000001d0: f7ca 7bbe 6413 7abe 6fde 7dbd 3efe 463e
000001e0: 114e 06be 5bdb 87be bfad 6b3e d80c 05bf
000001f0: c8ce babe 4ad4 a7be 6937 87be 05de d9be
00000200: 804a 9ebe 64be dc3e 7122 083f f965 863e
00000210: 942b 163f 24ca 8d3e e1f2 253c c7d4 8abe
00000220: 85ce 81be bce5 923e 17ef 98be 74d4 8e3e
00000230: 7c60 20be 41d3 19be 737a cf3e 9696 85bd
00000240: d2f0 95bd f360 383e 6b64 f3bd 0163 c43e
00000250: d275 bf3e ecb9 533e cd42 163e 5e15 ca3e
00000260: 0253 15be c26e 173f ff5d 3ebe 71cf c0be
00000270: b55e 9b3e 6cfc 49be 6032 d23e 5927 1fbf
00000280: e54d cc3d f862 4c3e 8c84 c23e 5b03 1bbe
00000290: 4473 c23d 2c75 0bbe 25c6 7fbe 6a2b e03d
000002a0: 3ca9 a03e d0a5 0b3e dffc 073f 52b9 923e
000002b0: 770d bc3e 3bae 09be 05a9 aabd e2a3 11be
000002c0: 4931 c2be bbf6 f4be 40b9 08bf 3ee0 703e
000002d0: 788c 0a3f 555a 67be a7f1 b7be a1f9 3abd
000002e0: f6e8 433f e9b7 60bc 01a0 6ebe f1d7 19be
000002f0: 7aef fa3d a193 a4be a2d9 293e 6da8 4dbe
00000300: 8592 b8bd cbbb 4abe d142 603e 804d d8be
00000310: ab40 f53d 38bf e3bd 2f88 c43e 5202 983d
00000320: 1830 b7be 4858 cb3d 87c3 3dbf 71f7 583e
00000330: dcaa 9d3d 9991 553d deed 423e 8b83 dbbe
00000340: 2d91 1f3f 6854 463e f4ee cbbe f484 be3e
00000350: 5583 503d ed26 bd3e 6287 2e3e 27d3 7b3e
00000360: 19bb 113f 26a9 413d 996e a03b eb4a 9fbe
00000370: ac04 433c ab6b d4be 0aba 933e 94e3 ddbe
00000380: a383 a6be b9e2 003e 9a57 5cbe ffeb d23d
00000390: 2edb 1c3d b01d 4a3d e723 c9be 1795 dabe
000003a0: 774d 163f 9a8c b8bd f910 b23e bd07 23be
000003b0: 9981 62be 50f7 04bd 8263 1e3f 94ce ec3d
000003c0: 5942 c9be 2105 48bd f93a bdbd 6406 223e
000003d0: 6cc6 d13e 8aa2 0cbf 337b bb3e 65c8 d43c
000003e0: 9326 533e 7471 323e a16b 21bf fd9b 883e
000003f0: af45 db3e 23ad 093e 71f4 d4bd 9b43 e73e
-0.40137836 -0.1489857 -0.33449894 0.0974722 -0.23870072 -0.29074708 -0.7035263 0.11051144
-0.47279042 -0.045236517 0.018013647 -0.17255028 0.28288376 0.17747235 0.15217601 0.1572293
-0.3045281 0.09602007 -0.16098255 -0.29882824 -0.058547433 0.44242352 0.7483224 -0.2971087
0.2697928 -0.07923925 -0.044153035 0.14125383 -0.114244044 -0.20989878 -0.28082317 -0.36639813
-0.0050277985 -0.37651852 -0.38893872 0.3221281 -0.6254145 -0.42216066 -0.1574105 -0.00034004814
0.049631096 0.1505255 0.62902546 0.37396988 0.31598845 -0.1408095 -0.4207614 0.17902263
-0.17961016 -0.38328534 -0.3422449 0.30202395 -0.20302509 0.10185149 -0.4029534 -0.16989806
-0.35240698 -0.4583504 -0.1957458 -0.25183123 0.38037717 0.16881856 -0.36432636 -0.043596756
-0.20037983 0.21102422 0.43007565 0.3132961 0.047570497 -0.33165526 0.4512265 -0.17916901
-0.15489012 0.017283628 -0.1483221 0.4794296 0.41640607 0.20653269 -0.008134236 0.25130397
0.14689305 -0.37607622 -0.59981513 -0.42475668 -0.4773778 0.38189596 0.06534268 -0.37594023
0.523064 0.14050886 0.6176688 0.15415484 -0.07888709 -0.29785278 -0.036073726 -0.18973458
-0.14176092 -0.20919949 0.032491446 0.106164634 0.07010707 -0.28744668 0.036751173 -0.32020634
0.22989903 -0.41968173 0.05097885 0.015497989 -0.34050116 -0.08230577 -0.18210347 -0.5684752
0.57879907 -0.3912444 -0.03923883 -0.16714045 -0.24589144 -0.2442146 -0.061979707 0.19432923
-0.13115717 -0.26534542 0.23015498 -0.51972723 -0.36485887 -0.3277915 -0.26409462 -0.425522
-0.30916214 0.43114007 0.53177553 0.26249674 0.58660245 0.27693284 0.010128708 -0.2711546
-0.25352874 0.28690898 -0.2986991 0.27896464 -0.15661806 -0.15021993 0.4052311 -0.065228626
-0.073213235 0.18005733 -0.118843876 0.38356784 0.37394577 0.20676392 0.1467392 0.39469427
-0.14582446 0.5915338 -0.18590544 -0.37658265 0.30345693 -0.19725198 0.41054058 -0.62169415
0.09975795 0.19959629 0.3799175 -0.15137999 0.094946414 -0.13618916 -0.2497793 0.109457806
0.31379116 0.13637471 0.53120226 0.28657013 0.36729023 -0.1344537 -0.08333019 -0.14222673
-0.37928227 -0.4784449 -0.5340767 0.23523042 0.5412059 -0.22593053 -0.35926554 -0.04564822
0.76527345 -0.013715723 -0.23303224 -0.15023781 0.12252708 -0.32143882 0.16586927 -0.2008378
-0.090123214 -0.197982 0.21900488 -0.42246628 0.11975225 -0.111204565 0.3838515 0.074223176
-0.3577888 0.09928948 -0.74126476 0.21188141 0.076986045 0.052140806 0.19036052 -0.42873797
0.62330896 0.19368136 -0.39830744 0.3721081 0.050906498 0.3694376 0.17043832 0.24592267
0.56926113 0.047280453 0.004895997 -0.31111845 0.011902969 -0.41488394 0.28852874 -0.4333769
-0.32522306 0.12586488 -0.21517792 0.10298919 0.038294964 0.04934472 -0.39285204 -0.42691872
0.5871195 -0.090111926 0.34778574 -0.1592092 -0.2211975 -0.032462418 0.61870587 0.11562839
-0.39308432 -0.048833016 -0.09239764 0.1582275 0.40971696 -0.54935515 0.3661743 0.025974462
0.20620184 0.17426091 -0.63054854 0.2668151 0.42826602 0.13444953 -0.10398186 0.45168766

bias f4 [64]
00000000: 1550 be3d 9a97 ecbd 2fe5 43be d1f4 5dbe
00000010: 9b66 bfbe 47a3 6d3e 3803 143e 67f2 a6be
00000020: 96cb 6a3e 8e87 683e cd57 a1be fb92 42be
00000030: 6e6b 403d a215 243e f36c d1be bf6d 26bc
00000040: a020 9fbe ae4e 14be eb07 3a3e a3a3 be3e
00000050: 40e0 a73e 29b0 8a3d 7c45 2abe f3e5 de3c
00000060: b58a 4abe 74ba 6e3e 12a6 a83e 2f16 0dbf
00000070: 3bff 133e 9e9e f13e 2403 6ebd 88e4 ff3d
00000080: 0a2e 2b3e 63ba 9fbe a89e dfbd c440 8cbe
00000090: b72e c83d b435 9bbe 4114 943e 8121 d03e
000000a0: 23ff 063f 5947 803d 398d df3d 6f01 f6be
000000b0: 8f2f 0dbf 7750 71be 5ac0 a93d ef87 9f3d
000000c0: 334d 153e 7147 47be 83c5 a43d fb22 bcbe
000000d0: bafe e73e b26f a4ba 79cf 9c3e 9254 3bbe
000000e0: 4138 05bf cac4 bbbe cd20 f2be 0538 d9bd
000000f0: 4a42 0bbf dd7a 783e 5bb3 f2be 1af8 9fbe
0.09292618 -0.11552353 -0.19130395 -0.21675421 -0.3738297 0.23206817 0.14454353 -0.32606813
0.22929224 0.2270796 -0.315123 -0.19001381 0.046977453 0.16023877 -0.40903434 -0.010158001
-0.31079578 -0.14483139 0.18167083 0.3723422 0.32788277 0.06771881 -0.16628069 0.027209258
-0.19779475 0.23313314 0.32939202 -0.55111974 0.14452831 0.47191328 -0.058108464 0.12494761
0.16716781 -0.3119689 -0.10918933 -0.27393162 0.09774535 -0.3031441 0.28921703 0.4065056
0.5273306 0.062636085 0.10915608 -0.4804797 -0.55150694 -0.23565851 0.08288641 0.07789599
0.1458023 -0.19460846 0.08045485 -0.36745438 0.45311528 -0.0012545495 0.3062704 -0.1829398
-0.5203896 -0.36673576 -0.4729065 -0.10606388 -0.54398024 0.24265619 -0.47402462 -0.31243974

weight f4 [32, 64]
00000000: 48fe ea3d e6c7 4ebd 7881 be3d 6dbf 61bd
00000010: 2ad3 94bd 6268 21bc 9fee 17bc fe2f 4abd
00000020: 3941 223d f0e0 9dbd 9a46 733c 1781 993d
00000030: 88c9 6a3c 25e0 d1bd 9d12 febb f51e 4d3d
00000040: 7001 e73c e921 43bd db7a 91be 9cf0 0f3d
00000050: 2e57 f23e 3f9d 07bd 20e7 923d 4100 523d
00000060: 81a0 613d 4f71 953c d12f 643d 8542 35be
00000070: deb3 8dbe 3ded dcbd 7216 9e3e 185e 043a
00000080: 9a88 acbd 96f9 ba3d 3d91 4a3d 91b0 05bd
00000090: 0927 923e fe7e cebd 1e76 043d 70f3 b2bd
000000a0: 89ad b33d 3355 55bd fef2 343d b399 c2bc
000000b0: 885e 9d3c c267 c33d 4f6f 4c3e c1a5 6e3d
000000c0: 16e6 dc3c dfda 96bc b399 993d 7b61 1b3e
000000d0: 3dca 80bd 0985 963a 1a74 9abd bc43 ab3c
000000e0: 6cee 183d 7040 b33d 63d4 d53d 01e4 6d3e
000000f0: ee6d 093d 0bfe 30be e801 83bd e949 14bd
00000100: 3946 25be 45ff b2bc 380a 0cbd fc1f 313e
00000110: 1cbe a3bd 674b 7a3c 5608 81bd 4699 82bd
00000120: fa71 9b3a 6292 aa3d ffc7 e8bc 2ff6 d13c
00000130: 2028 323d 1abc 953d 908b c0bd eb88 18bd
00000140: 56ff c9bd 448e 813d ca35 073e ce5e bdbd
00000150: c8c8 d13d f371 be3c d739 d4bb 7adc 013e
00000160: 4e74 483d d806 8c3e 240a c73d 477f 163d
00000170: bfec 9d3e c467 7d3d 8bd7 a1be ba25 4e3e
00000180: 1d2c 143e fd66 bbbc 7c8c e8bd ce8f 3b3d
00000190: 90da 1abd 624d 8e3d 1138 993d 0080 eabc
000001a0: 3e17 85bd 978e 433a 7474 ef3d 2444 6c3d
000001b0: fb1a 4bbe 7b6c c93d 51ae e53c 17e8 adbd
000001c0: e64b 1f3d f44d d83d 18c2 a8bc fea2 a9bc
000001d0: c036 2f3c d35a e7bd 713b 1c3e d8a6 013e
000001e0: 14d9 a7bd 8905 bdba 01de 1e3d dda6 823e
000001f0: 12ea ef3b dce2 de3d 87be 02be cd27 ad3d
00000200: 0d6c 153e 5aad 38bf 7766 ccbb 623e 5abe
00000210: 86b0 b83d 99ac 96bd 958e fabd e1fc f93d
00000220: bdc3 2fbe bfa4 80bd dfe2 44bd b28f 3b3d
00000230: 8693 873b cd57 023e 69c3 99bd cd2b 333e
00000240: 98f9 c73d 8ee6 6cbe 8c49 0a3e 1fc4 33bd
00000250: 74fb 073f 8298 d5bd 487f c93d 98a1 1abe
00000260: 17c2 e3bc b73c aabc b1f2 01bd 465c bdbd
00000270: 9cca 59bb e82e bcbd 8ece c73e ed3b 31be
00000280: 7ecc 053e 58f2 b5bc 2cd8 143e e17e a53c
00000290: 9db9 753e 0f47 8bbb c1c3 0e3e 2381 fabc
000002a0: c918 12be 8e40 08bc ba57 d83d b809 323d
000002b0: a587 9a3e 7ea8 8c3d 1a3f 533e 83d0 54be
000002c0: f5d2 ad3d 649a 703d 619d 37bd 709f 093e
000002d0: 87f7 09be 855c 8c3d 080f 023c ac51 173c
000002e0: c024 2e3e fa8f eb3d 19d0 0fbd 0c58 4c3e
000002f0: 79fe dbbd 2b73 8fbd ebd5 9c3b e8e7 ab3d
00000300: 2e19 803b d477 f0bc dbc9 f8bd 604e 07bd
00000310: b677 98bd f6e6 2b3d c54b f8bd 93da a13d
00000320: 9746 933d 6d50 29bd 5c7c 06bd 4ab7 f53d
00000330: 52cc 19bd 54aa e0bd 6e2c c9bd 639a e33c
00000340: d014 533d c076 dc3b b1d6 c43d 79a5 36bd
00000350: d462 7abd 0942 4a3c ba62 08be 4246 cbbd
00000360: ba6e d3bd 7f55 803d 7a43 9cbd 46de adbd
00000370: afb9 66bd 56b8 22bc 4860 70bd 2001 26bc
00000380: 2073 9f3c 5037 9abd 70b4 79bd c2fa 85bc
00000390: 49d7 ba3d a543 fabc 93d3 803d 8577 afbc
000003a0: 904c 5cbb 7c4c 663d a570 d13d 1073 863d
000003b0: 19ab 5b3c 3a3b fabd 3c0d ffbc e946 8a3d
000003c0: bc92 82bd 9663 99bb 54ac e6bd 58fc acbd
000003d0: 11be 8e3d ff2b d5bd 72b9 c2bd 48f2 763d
000003e0: ec6f 72bd 3f4d df3c d424 413d 288f d23d
000003f0: 2498 7d3d 3854 9ebd 30cc b1bd 6d83 ba3d
0.114742815 -0.050483607 0.09302038 -0.0551142 -0.07266839 -0.009851547 -0.0092732 -0.049362175
0.039612982 -0.07708919 0.014848376 0.07495325 0.014330275 -0.1024783 -0.0077536837 0.05007835
0.028198928 -0.04763976 -0.28414044 0.035141572 0.47332138 -0.033108946 0.0717299 0.051269773
0.05508471 0.018242506 0.055709664 -0.17701156 -0.2767629 -0.10787437 0.308765 0.00050494215
-0.08424492 0.09129636 0.049454916 -0.03263909 0.28545406 -0.100828156 0.032339208 -0.08737838
0.087733336 -0.052083205 0.044177048 -0.02375493 0.019210115 0.095412746 0.19964336 0.058263544
0.026965182 -0.018414913 0.07500019 0.15173905 -0.06288574 0.0011483739 -0.07541676 0.020906322
0.03733675 0.08752525 0.104409 0.23231508 0.033552103 -0.1728441 -0.06396848 -0.0362033
-0.16140069 -0.021850238 -0.034189433 0.17297357 -0.07995245 0.015276766 -0.06300418 -0.06376891
0.0011859529 0.083287016 -0.028415678 0.025630085 0.043495297 0.07311268 -0.094016194 -0.03723995
-0.098631546 0.06325963 0.13204113 -0.09246598 0.10243374 0.023247695 -0.0064766216 0.12681761
0.04893904 0.2734897 0.09718731 0.036742475 0.30844685 0.061866537 -0.3160976 0.20131579
0.14469953 -0.022876257 -0.1135492 0.04579144 -0.037806094 0.06948353 0.07481397 -0.028625488
-0.06498574 0.0007459907 0.116921335 0.05768217 -0.19834511 0.09835144 0.028037222 -0.08491533
0.03889074 0.105617434 -0.020600364 -0.020707604 0.010694206 -0.1129662 0.1525705 0.12661302
-0.08195701 -0.0014421205 0.03878594 0.25517932 0.0073216045 0.10883114 -0.12767993 0.08454857
0.14592 -0.72139513 -0.0062378007 -0.2131286 0.09018044 -0.07357139 -0.122342266 0.12206436
-0.17164512 -0.06281423 -0.048067924 0.045791335 0.004137459 0.12728806 -0.07507975 0.17497177
0.09764403 -0.23134825 0.13504618 -0.043888208 0.5311806 -0.10429479 0.0983873 -0.15100706
-0.02780251 -0.020780904 -0.03172559 -0.092461154 -0.0033232337 -0.09188634 0.39024776 -0.17308016
0.13066289 -0.022210285 0.14535588 0.020202102 0.23996587 -0.004250414 0.13941862 -0.030579155
-0.14267267 -0.008316172 0.105636075 0.0434663 0.30181614 0.06868075 0.2062954 -0.20782666
0.084875025 0.05874099 -0.044827823 0.13439727 -0.1347333 0.06853584 0.007938154 0.009235781
0.17006207 0.11502071 -0.035110567 0.19955462 -0.10741896 -0.070043884 0.004786243 0.08393842
0.0039092517 -0.029354014 -0.12147876 -0.03303373 -0.07444708 0.04196831 -0.12123827 0.07903018
0.07191198 -0.041336466 -0.032833442 0.1199785 -0.03754837 -0.109699875 -0.098229274 0.027783578
0.05153352 0.0067280233 0.09611262 -0.0445914 -0.061129406 0.012344846 -0.13318911 -0.0992551
-0.10323854 0.06266307 -0.07630058 -0.08489661 -0.056329425 -0.009931644 -0.05868557 -0.010132104
0.019464076 -0.07530081 -0.060963094 -0.016354922 0.09123094 -0.030549834 0.062903546 -0.021419296
-0.003361497 0.056225285 0.10226563 0.06564915 0.013407492 -0.12218328 -0.03113424 0.06751806
-0.063756436 -0.004681061 -0.11263338 -0.08446568 0.06969846 -0.10408782 -0.09508027 0.06028965
-0.05918877 0.027258513 0.047154263 0.10281211 0.06191267 -0.07730907 -0.08681524 0.09107099

bias f4 [32]
00000000: de06 14be 5072 593e 9fb8 503c 6bf1 1abd
00000010: e0d5 61bd 8e84 993c 0f7d aa3d 6e34 193d
00000020: 5f7a 503d 4fd1 22be 3643 e7bd 11d2 593e
00000030: 9177 ed3d 9edc 50bd 650b 98bc dcf3 4f3c
00000040: d638 0abe cfd7 2a3e c07e 033c f654 f53c
00000050: 7034 6e3d 24a3 febc 7823 993d cdd0 0f3d
00000060: 402b e13c 6cc3 0ebc a1c5 fdbd 2d78 a73d
00000070: 4064 093e 1fbc 0e3c c566 0d3e 6d8e 2f3e
-0.14455745 0.21235013 0.01273933 -0.03782789 -0.055135608 0.018739965 0.08324634 0.037403516
0.050897952 -0.15900157 -0.11292116 0.2127154 0.11595071 -0.050991647 -0.01856012 0.012692418
-0.13498244 0.16683887 0.008025825 0.02994774 0.058155477 -0.03108365 0.07477468 0.035111237
0.027486444 -0.008713584 -0.1239121 0.081772186 0.13417149 0.008711844 0.13808735 0.17144175

weight f4 [3, 32]
00000000: 8964 22bd 620e 58be b14e 323e 4b42 ec3c
00000010: a768 c9bd 17b6 cc3d 4339 023f a41c abbd
00000020: d484 183e 5c57 38bf ef72 893e 870c cc3d
00000030: 62b9 39bf 625f 8dbe 971b 003e 7366 5abc
00000040: b9a3 9abe 88f2 e2be 125b ff3d 06c9 aa3e
00000050: 5381 8c3e e5b7 a1be 430f ee3d fdac 343c
00000060: 72e3 fdbe f415 62be 017f cfbe 55a5 4c3e
00000070: 6f50 8cbe d2d4 a63e ff20 f6bc e010 34bd
00000080: 25a0 ac3d 062c bfbd a810 433e dda5 7dbd
00000090: 4731 99bd 644d 21be 583b 65be 484d cc3e
000000a0: 5fbd 9c3d f2dd ba3d d0fa 21bf 70cc bd3e
000000b0: 6e85 dc3e acab f43d 8040 983e 887f a4bd
000000c0: bc8d 973d 7263 2e38 beab 02be 92bd 86bd
000000d0: 54a4 8e3d 13ff d7bc 7933 293e b2a7 d43e
000000e0: f203 bb3e afb5 183e 1831 16be ecf7 2bbe
000000f0: 1d94 173f c8cd 393e 373a d3be 4ed7 023e
00000100: 88e4 683b 1274 093d 4e2a 47bd b1e0 0e3e
00000110: 0e26 c5bd 728e a43d 5393 a13a 4c8b dabd
00000120: e913 c93e e0b7 9ebd 12cb d03e f97e e4be
00000130: 5c3d 1d3e c834 593e 895b 6e3e 8f3f 043e
00000140: 94e9 adbd 5043 a9bc 1a8e fa3d 545a 29be
00000150: 39c4 403e 9cd2 1c3e 026e d83d 586c 173e
00000160: b913 3e3e 922e f53d f618 23be 01a3 d4bd
00000170: ae9a 67be e29f f63d 2de1 8a3e 7e25 9abe
-0.03964666 -0.21099237 0.17412831 0.028840205 -0.09834414 0.099956684 0.50868624 -0.08355072
0.1489442 -0.720083 0.268455 0.09963327 -0.72548497 -0.27611834 0.12510525 -0.01333009
-0.30203035 -0.44325662 0.12468542 0.33356494 0.27442417 -0.31585613 0.11624005 0.011027572
-0.4958759 -0.22078687 -0.40526584 0.19984944 -0.27405116 0.32584244 -0.03004503 -0.043961406
0.08428983 -0.09334569 0.19049323 -0.061925758 -0.07480102 -0.15752178 -0.22385919 0.3990271
0.07653307 0.09124364 -0.63273335 0.37070036 0.4307055 0.11946806 0.2973671 -0.08032137
0.074000806 4.157745e-05 -0.12760827 -0.065791264 0.06964937 -0.026366746 0.16523542 0.4153419
0.36526448 0.14913057 -0.14667165 -0.16793793 0.5921038 0.18144906 -0.41255352 0.12777445
0.0035536606 0.03355796 -0.04862433 0.139529 -0.09626399 0.08034982 0.0012327231 -0.106711
0.39273003 -0.07749915 0.4077993 -0.44628122 0.15355438 0.2121154 0.23277105 0.1291487
-0.08491817 -0.02066198 0.12234135 -0.16538364 0.18824853 0.15314716 0.10567857 0.14787424
0.18562211 0.11971773 -0.1592749 -0.10382653 -0.226176 0.12042214 0.2712492 -0.3010673

bias f4 [3]
00000000: 59f3 4c3e e465 7dbd 7e41 75bd
0.20014705 -0.06186475 -0.05987691
